vqvae_latent_8_colored_codebook_20/best_mnist_lstm.pth (torch, 821400 bytes, 13 tensors)

rnn.weight_ih_l0 f4 [512, 2]
0.185736 0.42567536 0.0103490995 0.2719104 0.47898072 0.6238535 0.25174373 0.12093099
-0.2698519 0.0819162 0.45207843 -0.009853949 0.61019176 0.44075498 -0.031437248 0.37533793
0.38059166 0.34128225 -0.28696185 -0.018058835 -0.042479265 -0.40179473 0.029273303 0.32842642
-0.2453308 -0.026733786 -0.553248 0.32106572 0.23131864 -0.097277485 -0.011142524 -0.12102781
-0.18876447 0.096501686 0.31019256 0.14130425 -0.49460658 0.5680215 -0.15973613 0.28941676
-0.8148009 -0.016206885 0.122567676 -0.0316115 0.08584786 -0.028309112 -0.057006977 -0.3450353
0.062296268 -0.24075283 0.21471879 0.39199117 -0.34080932 0.083131 0.1047186 0.17872195
-0.10532316 -0.49795064 -0.09997654 0.14755873 -0.53902453 -0.17693573 0.22910723 0.4337314
0.12600972 0.11282354 -0.010231503 0.44148743 -0.1428968 -0.25054008 -0.8034436 0.6136929
0.42907324 -0.09239012 0.13320717 0.43379444 0.1944218 0.0587376 -0.6091607 0.51515377
-0.41330814 -0.22679576 -0.21160159 0.008687712 0.5313586 0.071569145 -0.45758027 0.0076744515
-0.4337371 -0.11112604 0.50882745 0.18654257 -0.3492606 0.1416576 0.05388374 0.45449373
0.05591801 -0.07352753 0.014925513 0.028362414 -0.5473164 0.72605646 0.38201144 -0.054562427
-0.28915012 -0.25767574 0.88908386 -0.37060565 0.4683716 -0.24087714 0.5898142 -0.40394518
-0.57600564 0.23123826 0.30210796 0.08112751 -0.24651618 0.10738619 0.19371386 -0.37710938
-0.85651565 0.35115263 -0.46152833 -0.11499834 0.28697354 0.5052568 -0.73672986 0.15514517
0.5607397 0.19472767 -0.14599441 -0.038448896 -0.18458429 0.10913251 0.17397246 -0.076733194
-0.08095329 0.31867152 -0.1705101 0.076963834 -0.17776181 -0.030765507 0.22864988 0.87218636
0.21646477 -0.1733402 -0.16573285 -0.22597833 0.19762035 0.34321326 0.14600182 -0.338932
0.21160382 -0.2793827 0.7391068 0.4404874 0.12277782 0.57460034 -0.048203193 0.18053517
-0.18477719 0.08241341 -0.11893456 0.06050881 -0.17585017 -0.07091119 0.08913563 0.09741039
0.12841105 0.78241456 0.3065369 0.16447887 0.1919948 0.02344768 0.99490887 0.08888326
0.6338233 -0.39986882 -0.18376154 -0.12333017 0.68494016 -0.09712988 -0.38716713 0.02823593
-0.050460823 0.21926318 -0.1437215 -0.18442935 -0.40274158 0.03443496 -0.34994793 0.47318143
0.640143 0.31282946 0.5324454 0.054792084 0.102927335 -0.38926873 -0.5214075 0.12826708
0.12527926 0.119865976 0.0057995287 0.12261476 -0.20943035 -0.00975135 -0.25547042 -0.028894536
0.38798797 0.18394291 -0.34659764 -0.022125306 -0.07941724 0.090017684 0.20370123 0.660701
-0.14662136 -0.5153355 -0.6488738 -0.09541069 -0.15631062 0.2515889 -0.8960527 0.36250246
-0.00842804 -0.15276237 -0.051725194 -0.0993991 0.41027808 -0.1658767 -0.51875174 0.13661835
0.29390967 0.29490012 -0.22174439 0.3860939 0.13636604 0.9326268 0.64656097 -0.26302916
-0.9715117 0.38907868 0.12827843 0.34839818 0.70745814 -0.048169807 0.3533361 -0.42054236
0.17137477 -0.16645293 0.06088324 -0.05488475 -0.18882306 0.0844648 -0.2142646 0.075596444
00000000: 9431 3e3e 1ff2 d93e 458f 293c d737 8b3e
00000010: f63c f53e ddb4 1f3f 8ee4 803e abaa f73d
00000020: 072a 8abe aec3 a73d d376 e73e 7572 21bc
00000030: 8735 1c3f a3aa e13e 58c4 00bd 4b2c c03e
00000040: e9dc c23e 8cbc ae3e aaec 92be 1ff0 93bc
00000050: bdfe 2dbd 0ab8 cdbe 91ce ef3c 8227 a83e
00000060: ff37 7bbe d000 dbbc a9a1 0dbf ba62 a43e
00000070: cbde 6c3e 6b39 c7bd 228f 36bc 6edd f7bd
00000080: 794b 41be ada2 c53d 8fd1 9e3e 10b2 103e
00000090: 133d fdbe db69 113f de91 23be 6f2e 943e
000000a0: cb96 50bf 4dc4 84bc c304 fb3d 0f7b 01bd
000000b0: 01d1 af3d 83e8 e7bc 2680 69bd 78a8 b0be
000000c0: 5f2a 7f3d e987 76be 3edf 5b3e 11b3 c83e
000000d0: 8f7e aebe 9640 aa3d b576 d63d e302 373e
000000e0: abb3 d7bd 63f3 febe 80c0 ccbd a319 173e
000000f0: 83fd 09bf a42e 35be 169b 6a3e 0b12 de3e
00000100: b108 013e 0710 e73d 09a2 27bc a40a e23e
00000110: 8a53 12be ca46 80be 7bae 4dbf fa1a 1d3f
00000120: 7daf db3e 0837 bdbd 7667 083e 4e1a de3e
00000130: 8216 473e d696 703d f5f1 1bbf 1ee1 033f
00000140: 209d d3be 263d 68be 16ae 58be e856 0e3c
00000150: 1e07 083f d892 923d f647 eabe f779 fb3b
00000160: ca12 debe 0d96 e3bd 8442 023f 0405 3f3e
00000170: 49d2 b2be b10e 113e 32b5 5c3d 67b3 e83e
00000180: 490a 653d 9a95 96bd 248a 743c 4b58 e83c
00000190: ed1c 0cbf d6de 393f 0197 c33e da7c 5fbd
000001a0: 7c0b 94be 13ee 83be 009b 633f 06c0 bdbe
000001b0: 67ce ef3e 7fa8 76be 10fe 163f e7d1 cebe
000001c0: 1b75 13bf b9c9 6c3e e5ad 9a3e 2e26 a63d
000001d0: bd6e 7cbe 4aed db3d ed5c 463e 7b14 c1be
000001e0: 9c44 5bbf 47ca b33e 714d ecbe 4084 ebbd
000001f0: 32ee 923e 8258 013f 549a 3cbf 60de 1e3e
00000200: a38c 0f3f b166 473e 8f7f 15be 977c 1dbd
00000210: aa03 3dbe de80 df3d d625 323e 4b26 9dbd
00000220: d7ca a5bd ea28 a33e 339a 2ebe 379f 9d3d
00000230: 3107 36be f207 fcbc 3223 6a3e 9b47 5f3f
00000240: f1a8 5d3e 1880 31be dfb5 29be dd66 67be
00000250: fd5c 4a3e a6b9 af3e 8081 153e 7f88 adbe
00000260: acae 583e 400b 8fbe 1a36 3d3f 9187 e13e
00000270: f072 fb3d 0219 133f b670 45bd 36de 383e
00000280: 3b36 3dbe 5dc8 a83d f693 f3bd 16d8 773d
00000290: 1112 34be e339 91bd be8c b63d 197f c73d
000002a0: 307e 033e 524c 483f 68f2 9c3e 266d 283e
000002b0: 499a 443e 5915 c03c 59b2 7e3f 6d08 b63d
000002c0: 3e42 223f 9bbb ccbe fc2b 3cbe 8794 fcbd
000002d0: 3d58 2f3f 08ec c6bd c53a c6be 094f e73c
000002e0: 02b0 4ebd 8786 603e bb2b 13be 0cdb 3cbe
000002f0: 2534 cebe ac0b 0d3d 602c b3be d644 f23e
00000300: 69e0 233f 2f2b a03e 574e 083f aa6d 603d
00000310: 91cb d23d 3b4e c7be f67a 05bf 7258 033e
00000320: 3549 003e 4b7c f53d f909 be3b 731d fb3d
00000330: e974 56be 20c4 1fbc 05cd 82be 3cb4 ecbc
00000340: 5ca6 c63e 885b 3c3e 3f75 b1be 2140 b5bc
00000350: 82a5 a2bd 315b b83d 0e97 503e b323 293f
00000360: e923 16be 07ed 03bf 981c 26bf ae66 c3bd
00000370: e40f 20be 43d0 803e b663 65bf ec99 b93e
00000380: c315 0abc bd6d 1cbe ccdd 53bd c191 cbbd
00000390: f80f d23e 95db 29be eacc 04bf aee5 0b3e
000003a0: 547b 963e 26fd 963e f610 63be 1aae c53e
000003b0: 8aa3 0b3e a1c0 6e3f 0585 253f c2ab 86be
000003c0: feb4 78bf 5235 c73e 6c5b 033e 3f61 b23e
000003d0: fa1b 353f b44d 45bd 78e8 b43e 5451 d7be
000003e0: de7c 2f3e a372 2abe b460 793d d5ce 60bd
000003f0: d55a 41be e2fb ac3d 2e68 5bbe 4fd2 9a3d

rnn.weight_hh_l0 f4 [512, 128]
-0.20985997 0.21770975 -0.05126277 0.3353406 -0.28008392 0.2783906 -0.028853558 0.2711965
0.121088475 0.13618024 -0.0688669 -0.2597188 0.34183422 -0.4541215 -0.25749546 -0.077959955
0.40508074 -0.3822763 -0.015892241 -0.2223021 0.14735256 -0.038520485 -0.03464872 -0.23007965
0.28472373 0.23806082 -0.18551302 0.229136 0.058111325 -0.21208826 0.032999042 0.19936603
0.18161412 -0.077734545 -0.15520304 -0.30063555 0.07830675 -0.1111931 0.18341926 0.06937096
0.12620667 0.120175734 -0.10446274 -0.26513803 -0.26250926 -0.24311054 -0.3803616 0.28732494
-0.06381394 -0.27928784 -0.21319033 0.10895079 -0.027923191 0.17341156 -0.311552 -0.05353244
0.023167854 -0.550379 -0.21532969 0.29696944 -0.33019188 0.13037507 -0.59882176 -0.06890481
0.035244584 -0.19642532 0.4720581 0.121005565 -0.13257569 0.07340565 0.39913246 0.13618092
-0.06340724 0.08044888 -0.23267001 -0.33378294 -0.04810463 -0.14459153 -0.3729014 0.2574194
0.031581227 0.07320258 0.08477874 -0.13919243 0.025198925 -0.007319634 -0.095688805 -0.63844186
-0.33484045 -0.07047908 0.53723633 -0.16152929 0.23530662 -0.1298888 0.14442319 -0.21186766
0.25654656 0.0058628903 0.14010315 0.0584815 0.23494734 -0.026147274 -0.015327162 0.16881746
0.27673632 0.3246391 -0.035502616 -0.033107873 0.13507107 0.14698185 -0.3612104 -0.41863322
0.6097654 0.07897706 0.27466774 -0.4081409 -0.084805176 0.2916133 -0.13321654 0.24485554
-0.23265606 0.06652502 0.48884872 -0.0903065 0.20881177 0.16524877 0.044714417 0.1027453
0.081433855 0.12057037 -0.35139403 0.3790689 0.18421459 -0.07999416 0.058427572 -0.28429627
-0.28613913 0.1674234 -0.109425195 -0.07323295 -0.124245 -0.15224735 -0.5516831 0.38965836
0.3240764 0.017065713 -0.24638076 -0.15031116 -0.3181923 -0.52572024 0.23233235 -0.020511556
-0.0778144 -0.30517694 0.18994015 0.091299914 -0.053412627 0.0074437517 0.07969488 0.19945095
-0.26843092 -0.021404818 0.16993998 -0.124000974 -0.08185091 -0.16737415 0.30065408 -0.11473967
0.3356458 0.019049093 0.15675703 0.18034534 0.093512975 -0.036802445 -0.097111 0.06430453
-0.4835282 0.24632996 0.09018557 -0.14891514 -0.027055116 -0.24668118 -0.17408134 -0.066713735
0.08109925 0.13286878 -0.05042189 -0.4442239 -0.16175368 -0.1909735 0.16665718 0.053085074
-0.32479626 -0.15323484 -0.081196316 -0.09705252 0.26157278 0.3339177 -0.044015873 0.48569387
-0.30324477 -0.34243873 0.51822597 0.3496478 -0.06950639 0.14787696 -0.07925035 0.1264982
0.2248555 0.033784397 0.24854454 0.14968345 0.042646676 -0.19183023 0.5005413 -0.06005182
0.26947922 -0.03208122 0.04426534 -0.14732035 -0.19507901 0.4985207 -0.16154256 -0.06219886
0.03369639 0.118561044 -0.13107844 0.009105604 0.13739246 -0.39241472 -0.28886646 -0.19986749
-0.011319622 -0.25627106 0.17681777 -0.012280157 -0.6731195 -0.20597869 0.18052468 -0.32078752
-0.09637399 0.27229294 -0.027418595 0.1694159 0.92431647 -0.2203548 -0.5570559 -0.51496845
-0.027137449 -0.037480015 -0.20607404 0.30734238 -0.13437952 0.03755557 0.2561907 0.040290736
00000000: 88e5 56be 4eef 5e3e e9f8 51bd c3b1 ab3e
00000010: 2967 8fbe 3689 8e3e 4c5e ecbc 45da 8a3e
00000020: 3cfd f73d d572 0b3e 170a 8dbd ddf9 84be
00000030: e504 af3e 9d82 e8be 72d6 83be 78a9 9fbd
00000040: be66 cf3e b8b9 c3be 7230 82bc 29a3 63be
00000050: 97e3 163e a8c7 1dbd d1eb 0dbd 009a 6bbe
00000060: 4fc7 913e 37c6 733e 20f7 3dbe a1a2 6a3e
00000070: 2406 6e3d aa2d 59be 012a 073d 9c26 4c3e
00000080: 0df9 393e 4a33 9fbd 8ced 1ebe e7ec 99be
00000090: 4a5f a03d 35b9 e3bd 42d2 3b3e 5d12 8e3d
000000a0: 523c 013e b21e f63d 90f0 d5bd 2cc0 87be
000000b0: 9d67 86be f8f1 78be c1be c2be 411c 933e
000000c0: e2b0 82bd d1fe 8ebe 914e 5abe 9721 df3d
000000d0: 2dbf e4bc cd92 313e be83 9fbe d544 5bbd
000000e0: 83ca bd3c a3e5 0cbf 637f 5cbe 610c 983e
000000f0: e90e a9be 0b81 053e 624c 19bf f71d 8dbd
00000100: a05c 103d b823 49be 99b1 f13e c4d1 f73d
00000110: ecc1 07be b455 963d 175b cc3e 0373 0b3e
00000120: a8db 81bd 62c2 a43d 0c41 6ebe 99e5 aabe
00000130: 5c09 45bd cd0f 14be efec bebe 7acc 833e
00000140: 515b 013d 3ceb 953d 7aa0 ad3d 7688 0ebe
00000150: fa6d ce3c 8ad9 efbb 7ef8 c3bd ed70 23bf
00000160: 3570 abbe 5657 90bd 5288 093f ef67 25be
00000170: 38f4 703e 9201 05be ace3 133e d6f3 58be
00000180: 125a 833e 7d1d c03b 3377 0f3e 4c8a 6f3d
00000190: 0996 703e cf32 d6bc c71e 7bbc 7cde 2c3e
000001a0: 62b0 8d3e 1937 a63e 316b 11bd 1f9c 07bd
000001b0: 1250 0a3e 6982 163e 92f0 b8be 1857 d6be
000001c0: 9619 1c3f babe a13d 40a1 8c3e d8f7 d0be
000001d0: 56ae adbd 574e 953e eb69 08be 69bb 7a3e
000001e0: 643d 6ebe 453e 883d 614a fa3e 9df2 b8bd
000001f0: c1d2 553e f936 293e 7726 373d 216c d23d
00000200: cbc6 a63d 99ed f63d ebe9 b3be 5215 c23e
00000210: c0a2 3c3e fad3 a3bd c051 6f3d 488f 91be
00000220: d480 92be 0a71 2b3e 511a e0bd 28fb 95bd
00000230: 2a74 febd bbe6 1bbe 1b3b 0dbf 4d81 c73e
00000240: 58ed a53e 65cd 8b3c 3d4b 7cbe 2beb 19be
00000250: 1aea a2be 9a95 06bf 88e8 6d3e da07 a8bc
00000260: 285d 9fbd 2740 9cbe ac7f 423e 73fb ba3d
00000270: 33c7 5abd b7ea f33b 1237 a33d df3c 4c3e
00000280: c76f 89be 2859 afbc bf04 2e3e 39f4 fdbd
00000290: 73a1 a7bd 2164 2bbe 55ef 993e a2fc eabd
000002a0: c4d9 ab3e d80c 9c3c ea84 203e 73ac 383e
000002b0: bb83 bf3d 29be 16bd 22e2 c6bd 18b2 833d
000002c0: 0291 f7be ec3d 7c3e 36b3 b83d 367d 18be
000002d0: b1a2 ddbc fe99 7cbe 6142 32be 36a1 88bd
000002e0: 5d17 a63d c10e 083e 2f87 4ebd 5171 e3be
000002f0: c2a2 25be 8f8e 43be 2ea8 2a3e bc6f 593d
00000300: b24b a6be 98e9 1cbe 414a a6bd 79c3 c6bd
00000310: deec 853e 43f7 aa3e fd49 34bd deac f83e
00000320: e642 9bbe 2154 afbe 75aa 043f 0905 b33e
00000330: 5e59 8ebd 0f6d 173e 024e a2bd bf88 013e
00000340: 8540 663e 8261 0a3d 7682 7e3e 9e46 193e
00000350: 48ae 2e3d 256f 44be 7a23 003f e6f8 75bd
00000360: 2ef9 893e 9967 03bd 934f 353d 25db 16be
00000370: cbc2 47be 1b3e ff3e 6a6b 25be 3bc4 7ebd
00000380: 3a05 0a3d 22d0 f23d 6d39 06be ac2f 153c
00000390: 9cb0 0c3e 95ea c8be 4ee6 93be 10aa 4cbe
000003a0: f075 39bc f635 83be b80f 353e b632 49bc
000003b0: 8f51 2cbf 14ec 52be 76db 383e 433e a4be
000003c0: ba5f c5bd fb69 8b3e f69c e0bc 5d7b 2d3e
000003d0: 01a0 6c3f b0a4 61be 379b 0ebf f9d4 03bf
000003e0: 5b4f debc a584 19bd 1305 53be fb5b 9d3e
000003f0: c99a 09be dfd3 193d 6d2b 833e e607 253d

rnn.bias_ih_l0 f4 [512]
-0.50395316 -0.44479468 -0.26593426 -0.27022633 -0.31351253 -0.35540822 0.047280226 -0.12834251
-0.099467896 -0.20663343 0.15538295 -0.28033656 -0.2753779 -0.4578612 -0.046145566 -0.2647133
-0.16055962 -0.4221022 -0.24363418 -0.32174954 0.013260635 -0.10265365 -0.08665832 -0.50258243
-0.24957792 -0.017421568 -0.4235585 -0.28823334 -0.0016629724 -0.4512093 -0.46877605 -0.32623428
-0.5452267 -0.2730432 -0.25370327 -0.03365736 -0.2071015 -0.48185897 -0.45899114 -0.33413523
-0.33335403 -0.12399673 0.021442872 -0.21742153 -0.020910818 -0.002670199 -0.08453161 -0.31488433
-0.3679817 -0.300637 -0.15752026 -0.277138 -0.44713205 -0.33987838 -0.70861095 -0.23875475
-0.20214191 -0.5586207 -0.42903772 0.047188107 0.5246689 -0.5397777 -0.5493503 -0.14455844
-0.39181632 -0.22377536 -0.46329057 -0.5352119 -0.12359734 -0.38038597 -0.4246648 -0.20208508
-0.11767867 -0.38440508 0.16520771 0.1425164 -0.17766051 -0.28701088 -0.29884455 -0.22903143
-0.503579 -0.083365284 -0.27528208 -0.3733954 -0.07441568 -0.1548921 -0.34996822 -0.016634565
-0.44165483 -0.03340294 0.056637082 0.20801915 -0.2888563 -0.32901272 -0.40284806 -0.28068414
-0.51167446 -0.08887007 -0.28845227 0.011312959 -0.16321994 -0.046080485 -0.33112726 -0.14366059
-0.3930632 -0.33392265 -0.4831721 -0.101333946 0.010879806 -0.19567212 -0.4719264 0.00020714756
0.19673377 -0.12673432 -0.37368166 -0.26368695 -0.11972407 -0.10037293 -0.12911987 -0.2196652
-0.27158558 0.052226026 -0.26043925 -0.5006467 -0.30746457 -0.35939875 -0.24959485 -0.13423952
-0.16151369 0.37347493 0.055142246 0.12572965 0.24742089 -0.066901036 -0.18800053 0.11283675
-0.43563932 0.24721631 -0.17218025 -0.20216927 0.04089835 -0.13756408 0.08058173 -0.11306085
0.11989192 -0.18487072 0.27121156 -0.061441522 -0.1163002 -0.1478912 -0.0419078 0.43664834
-0.1333551 -0.357884 0.60802543 -0.099116385 -0.3612114 0.013300339 0.19452341 -0.06874007
0.3105747 -0.06068917 0.09389054 -0.01995874 -0.24209549 0.7156496 0.008114337 0.118933514
-0.022454329 0.13585718 -0.013201662 0.2574615 -0.047970776 -0.09219756 0.045612026 0.16033001
0.2843816 0.039671272 -0.1312632 -0.23103657 -0.47180545 -0.37838656 -0.122798495 -0.21240872
-0.12057577 -0.033253957 -0.10840138 -0.12424441 -0.26981863 -0.17253913 0.3890515 -0.051883478
0.063514374 0.20760852 -0.17763999 0.19989729 -0.05691875 0.04915633 -0.12503366 -0.23069838
-0.024256324 -0.04311137 -0.09127157 -0.29711384 -0.07763148 -0.4560603 0.41693997 0.5117155
0.21836202 0.09068125 0.24241994 0.36775425 -0.010758452 -0.40088907 -0.00543145 -0.4578429
-0.40850616 -0.17077164 -0.30221328 -0.22558713 0.23769075 -0.29983467 -0.003285456 0.1730917
0.5711585 0.090915374 -0.19017226 -0.1205271 -0.007926397 -0.44069013 -0.009666227 -0.22299388
0.3632177 -0.037133336 0.4632373 -0.11114067 0.11630737 0.041505318 0.22738358 -0.2143393
-0.08868617 -0.058780983 -0.060625818 -0.0044641825 0.09421708 0.1460418 -0.2408358 -0.13333835
0.064387076 -0.3102611 -0.13746172 -0.15867889 0.08983843 0.08260238 -0.12603946 -0.08304772
00000000: 1303 01bf 21bc e3be 8928 88be 1b5b 8abe
00000010: b784 a0be 11f8 b5be e9a8 413d 386c 03be
00000020: d3b5 cbbd b797 53be b51c 1f3e 4688 8fbe
00000030: 55fe 8cbe c96c eabe 2203 3dbd 8088 87be
00000040: be69 24be c81d d8be 3d7b 79be 5bbc a4be
00000050: 2243 593c 143c d2bd eb79 b1bd 3ea9 00bf
00000060: 5b91 7fbe adb7 8ebc a9dc d8be 5293 93be
00000070: 18f8 d9ba e804 e7be 6a03 f0be 2e08 a7be
00000080: fa93 0bbf 51cc 8bbe 65e5 81be 4ddc 09bd
00000090: 6a12 54be 38b6 f6be e300 ebbe c613 abbe
000000a0: 61ad aabe fff1 fdbd f6a8 af3c c0a3 5ebe
000000b0: 2a4d abbc 81fe 2ebb e91e adbd 8538 a1be
000000c0: 1968 bcbe 18ed 99be fe4c 21be 08e5 8dbe
000000d0: 7eee e4be 8a04 aebe 8767 35bf 207c 74be
000000e0: 4afe 4ebe c401 0fbf d5aa dbbe 5148 413d
000000f0: b350 063f df2e 0abf 39a2 0cbf 2107 14be
00000100: 269c c8be 5e25 65be 6c34 edbe a603 09bf
00000110: 9a20 fdbd f3c1 c2be aa6d d9be 64ef 4ebe
00000120: 8401 f1bd bed0 c4be 362c 293e d2ef 113e
00000130: a3ec 35be 17f3 92be 2702 99be 3787 6abe
00000140: 8eea 00bf 6bbb aabd c6f1 8cbe af2d bfbe
00000150: 3f67 98bd 099c 1ebe 092f b3be 3645 88bc
00000160: 9520 e2be 85d1 08bd 49fc 673d f902 553e
00000170: f9e4 93be 5b74 a8be 1a42 cebe d5b5 8fbe
00000180: 19fd 02bf 8301 b6bd 04b0 93be fd59 393c
00000190: 2123 27be e4be 3cbd 8389 a9be c31b 13be
000001a0: 943f c9be e9f7 aabe 5562 f7be 2c88 cfbd
000001b0: 3741 323c 465e 48be 56a0 f1be c035 5939
000001c0: 9474 493e a4c6 01be 3453 bfbe fa01 87be
000001d0: e531 f5bd 5390 cdbd 0038 04be eaef 60be
000001e0: 440d 8bbe f5ea 553d 4b58 85be 622a 00bf
000001f0: ff6b 9dbe 1d03 b8be cb95 7fbe 1676 09be
00000200: d863 25be 1b38 bf3e d6dc 613d 46bf 003e
00000210: e75b 7d3e 6903 89bd 3683 40be f416 e73d
00000220: 1e0c dfbe 4626 7d3e 0550 30be 7605 4fbe
00000230: 0785 273d 99dd 0cbe 0908 a53d 728c e7bd
00000240: e589 f53d c04e 3dbe 3edc 8a3e 1baa 7bbd
00000250: cd2e eebd ca70 17be 83a7 2bbd 5f90 df3e
00000260: 3d8e 08be 923c b7be 8ea7 1b3f 88fd cabd
00000270: b3f0 b8be aae9 593c 2531 473e 98c7 8cbd
00000280: a603 9f3e 3595 78bd af49 c03d 8380 a3bc
00000290: e1e7 77be d034 373f fff1 043c 6a93 f33d
000002a0: 24f2 b7bc 251e 0b3e c94b 58bc fed1 833e
000002b0: 017d 44bd 13d2 bcbd add3 3a3d 8d2d 243e
000002c0: 779a 913e 587e 223d dc69 06be da94 6cbe
000002d0: 7c90 f1be e2bb c1be c77d fbbd ac81 59be
000002e0: 6ef0 f6bd 4d35 08bd 8b01 debd da73 febd
000002f0: ab25 8abe 19ae 30be c231 c73e c583 54bd
00000300: d313 823d 5497 543e 42e7 35be e0b1 4c3e
00000310: a323 69bd 2658 493d d308 00be 323c 6cbe
00000320: 33b5 c6bc 8c95 30bd 97ec babd 4e1f 98be
00000330: 41fd 9ebd bc80 e9be 2879 d53e c9ff 023f
00000340: 4b9a 5f3e 17b7 b93d ef3c 783e 494a bc3e
00000350: 3844 30bc 5541 cdbe 4efa b1bb 626a eabe
00000360: b827 d1be c3de 2ebe b3bb 9abe 5000 67be
00000370: 3465 733e ee83 99be ce50 57bb f33e 313e
00000380: 7237 123f d731 ba3d 84bc 42be ead6 f6bd
00000390: b8dd 01bc 23a2 e1be 185f 1ebc 8258 64be
000003a0: acf7 b93e 2019 18bd 702d ed3e b89d e3bd
000003b0: 8f32 ee3d 7b01 2a3d 3ed7 683e c37b 5bbe
000003c0: 18a1 b5bd 54c4 70bd c752 78bd 4748 92bb
000003d0: e2f4 c03d fb8b 153e a99d 76be d989 08be
000003e0: 5fdd 833d 8bda 9ebe c4c2 0cbe b87c 22be
000003f0: 36fd b73d 702b a93d 7d10 01be ec14 aabd

rnn.bias_hh_l0 f4 [512]
-0.4445336 -0.46498123 -0.3970147 -0.32985315 -0.2827304 -0.45366538 -0.027278984 -0.2532402
-0.097146064 -0.2742168 0.12655409 -0.31459147 -0.334299 -0.5111338 -0.07845423 -0.16440086
-0.19395474 -0.5517723 -0.18569194 -0.32113543 -0.081033446 -0.14773461 -0.20254683 -0.5462499
-0.23135433 -0.13573971 -0.50762665 -0.21491306 -0.047676947 -0.4323921 -0.5065147 -0.2824642
-0.51806176 -0.2519374 -0.18583153 -0.069604844 -0.19054818 -0.4677408 -0.42397526 -0.2739318
-0.3155131 -0.10877064 0.011836367 -0.17580527 -0.060104866 -0.12757461 -0.15969993 -0.16841556
-0.30752867 -0.4089178 -0.14814481 -0.2293478 -0.548562 -0.4430074 -0.6070022 -0.2587457
-0.20476744 -0.59648 -0.551416 -0.014686002 0.5536284 -0.5921645 -0.4733869 -0.19265257
-0.37676603 -0.1731532 -0.38201803 -0.5152636 0.017884703 -0.4597684 -0.38928285 -0.19234662
-0.14152269 -0.30003768 0.17932284 0.19483083 -0.18972303 -0.31144616 -0.38620955 -0.12047406
-0.48793617 -0.1417824 -0.3488857 -0.41049868 -0.08631082 -0.09032412 -0.3296786 -0.13558926
-0.4707949 0.03463415 0.06616892 0.07812599 -0.30375326 -0.29263633 -0.41784635 -0.28375813
-0.36727253 -0.20042452 -0.23325866 -0.014436415 -0.076399915 -0.094108574 -0.34144187 -0.2299457
-0.30984154 -0.2559904 -0.5744534 -0.13208786 -0.053603575 -0.23415665 -0.39502677 -0.08754287
0.24293925 -0.18472731 -0.3615578 -0.33674297 -0.2173212 -0.109128125 -0.14072913 -0.31636184
-0.3095216 0.118696034 -0.32106382 -0.5449708 -0.31050566 -0.35836843 -0.22336996 -0.15507782
-0.22637941 0.3678026 0.004827394 0.09522604 0.40731946 -0.19760084 -0.27529892 0.21961008
-0.3115467 0.23062281 -0.29135448 -0.10631315 0.04907317 -0.06914908 0.22023974 -0.08135763
0.01074456 -0.26293042 0.36112565 -0.120407574 -0.1436081 -0.0655284 0.024418507 0.43677336
-0.10796295 -0.37333572 0.55222327 -0.13345264 -0.2891933 0.0055567604 0.16768 -0.008187014
0.33814174 -0.06075788 0.02259157 -0.014577292 -0.15866359 0.6345172 0.044731043 0.18880789
0.11815726 0.1456299 -0.026180893 0.30301145 -0.0039199335 -0.10894558 0.18687573 0.2670649
0.4427784 0.14402896 -0.16248395 -0.08015404 -0.40445343 -0.40725198 -0.14825341 -0.21335623
-0.1578139 -0.09367863 -0.2018364 -0.10279235 -0.3636903 -0.15189023 0.37574378 0.055450954
-0.017817035 0.22185613 -0.23774125 0.20106956 -0.044432543 0.15298872 -0.05161658 -0.13833594
-0.015039168 0.023389919 -0.086430386 -0.3461516 -0.056666546 -0.5150577 0.44224137 0.5859457
0.2120563 -0.018371064 0.29573336 0.34914538 -0.11113015 -0.38330075 -0.08262464 -0.41577652
-0.3462054 -0.16054529 -0.18906802 -0.25550503 0.3741023 -0.22983773 0.024517195 0.18014012
0.59806454 0.028258966 -0.17203182 -0.16892034 0.098869644 -0.36002958 0.023394624 -0.08768974
0.4118351 0.035840422 0.45472595 -0.13118741 0.015911441 0.026894145 0.37989083 -0.22227448
0.010477492 -0.0013267278 -0.17062949 -0.12745373 0.11030902 0.07051471 -0.2812641 -0.031421747
-0.0433579 -0.35433736 -0.14950317 -0.20627524 0.12629938 0.023078648 -0.13888946 -0.102160335
00000000: e899 e3be 0512 eebe 8345 cbbe 83e2 a8be
00000010: 0ac2 90be d446 e8be 2d78 dfbc b3a8 81be
00000020: 84f4 c6bd 2566 8cbe 6597 013e 2212 a1be
00000030: 3d29 abbe aad9 02bf 9dac a0bd b358 28be
00000040: 129c 46be f340 0dbf 0726 3ebe dd6b a4be
00000050: ddf4 a5bd be47 17be 7068 4fbe 09d7 0bbf
00000060: 26e8 6cbe 5aff 0abe d2f3 01bf 2b12 5cbe
00000070: e748 43bd 7f62 ddbe f3aa 01bf 269f 90be
00000080: b29f 04bf f0fd 80be 9f4a 3ebe fc8c 8ebd
00000090: 101f 43be b97b efbe 4913 d9be ca40 8cbe
000000a0: ef8a a1be 24c3 debd 52ed 413c 4c06 34be
000000b0: 8530 76bd eba2 02be 6188 23be 2175 2cbe
000000c0: 6674 9dbe ad5d d1be 46b3 17be 26da 6abe
000000d0: 8f6e 0cbf ded1 e2be 7f64 1bbf 517a 84be
000000e0: 8eae 51be eab2 18bf 9929 0dbf 8f9d 70bc
000000f0: 97ba 0d3f 1898 17bf c55f f2be b746 45be
00000100: 7ae7 c0be 134f 31be de97 c3be 51e8 03bf
00000110: f182 923c c466 ebbe 1550 c7be 83f6 44be
00000120: 53eb 10be 8a9e 99be 68a0 373e bc81 473e
00000130: c146 42be df75 9fbe 42bd c5be 1bbb f6bd
00000140: c5d2 f9be 682f 11be 25a1 b2be e22c d2be
00000150: bac3 b0bd dafb b8bd a2cb a8be e9d7 0abe
00000160: 070c f1be 8adc 0d3d 9283 873d 8500 a03d
00000170: 8c85 9bbe 6ed4 95be f5ef d5be bf48 91be
00000180: 250b bcbe 163c 4dbe 5cdb 6ebe b786 6cbc
00000190: 8f77 9cbd ffbb c0bd 78d1 aebe e376 6bbe
000001a0: 8da3 9ebe 2c11 83be 610f 13bf 0a42 07be
000001b0: 6c8f 5bbd c3c6 6fbe f340 cabe ad49 b3bd
000001c0: 11c5 783e 2829 3dbe 1b1e b9be 9369 acbe
000001d0: 7389 5ebe 917e dfbd 4c1b 10be 2efa a1be
000001e0: 9d79 9ebe e816 f33d 7a62 a4be 3583 0bbf
000001f0: 99fa 9ebe 117c b7be 18bb 64be b8cc 1ebe
00000200: 01d0 67be 9f50 bc3e 1e2f 9e3b df05 c33d
00000210: 2d8c d03e e057 4abe fbf3 8cbe 77e1 603e
00000220: 0d83 9fbe 6328 6c3e 6a2c 95be b5ba d9bd
00000230: f300 493d 089e 8dbd 8786 613e d49e a6bd
00000240: f309 303c d19e 86be 76e5 b83e 3f98 f6bd
00000250: 000e 13be c133 86bd 5209 c83c c2a0 df3e
00000260: ae1b ddbd dc25 bfbe 815e 0d3f cfa7 08be
00000270: 2511 94be 7c15 b63b 4eb4 2b3e d322 06bc
00000280: ea20 ad3e 41dd 78bd f511 b93c 98d5 6ebc
00000290: b578 22be b86f 223f e637 373d db56 413e
000002a0: 6ffc f13d 0120 153e 5079 d6bc 5124 9b3e
000002b0: c972 80bb dc1e dfbd 5a5c 3f3e bbbc 883e
000002c0: dab3 e23e 547c 133e 3162 26be cd27 a4bd
000002d0: 8514 cfbe 5583 d0be becf 17be 0e7a 5abe
000002e0: f899 21be 95da bfbd 34ae 4ebe cc84 d2bd
000002f0: 9d35 babe 1d89 1bbe 7d61 c03e 8a20 633d
00000300: 08f5 91bc 412e 633e 7172 73be 2ee5 4d3e
00000310: e6fe 35bd 13a9 1c3e e86b 53bd f0a7 0dbe
00000320: d866 76bc 379c bf3c 6a02 b1bd c83a b1be
00000330: 2e1b 68bd d2da 03bf 766d e23e 8a00 163f
00000340: 4925 593e ea7e 96bc 5d6a 973e 2fc3 b23e
00000350: 3498 e3bd ff3f c4be 1b37 a9bd a9e0 d4be
00000360: d641 b1be fc65 24be 0c9b 41be 8ed1 82be
00000370: 568a bf3e 955a 6bbe 49d8 c83c a776 383e
00000380: c21a 193f 597f e73c 1c29 30be 74f9 2cbe
00000390: 2b7c ca3d cc55 b8be 15a6 bf3c ae96 b3bd
000003a0: 0ddc d23e 68cd 123d d7d1 e83e fe55 06be
000003b0: b658 823c 1c51 dc3c 0d81 c23e ec9b 63be
000003c0: c9a9 2b3c 99e5 adba 7fb9 2ebe 3b83 02be
000003d0: b2e9 e13d 046a 903d d901 90be 17b4 00bd
000003e0: 0e98 31bd b56b b5be 5c17 19be d139 53be
000003f0: a054 013e 6f0f bd3c 0a39 0ebe 7039 d1bd

rnn.weight_ih_l1 f4 [512, 128]
0.26497513 -0.5644925 0.26961735 -0.2135791 0.51868886 -0.44518313 0.5350451 -0.3806591
0.1843851 -0.053565223 0.11455364 -0.112235755 -0.033074293 -0.14980115 0.37756366 -0.46120238
0.07873379 0.25378454 -0.47769958 -0.014228405 -0.5165897 0.9518236 -0.0874773 -0.039806433
-0.1285891 0.29613906 -0.20371263 -0.13762793 0.2983993 0.2809503 -0.3728901 0.27126396
0.25769582 -0.52775085 -0.3401016 -0.12977403 0.29532695 -0.10776202 -0.38762656 -0.07842304
0.17377065 -0.05708461 -0.7609143 -0.07647342 0.20826885 -0.12266761 0.012000223 -0.007057223
0.3052012 -0.03368804 -0.4580605 -0.06675795 -0.3547985 -0.2012562 0.21642715 -0.120951414
-0.18722887 0.08823546 0.2039054 0.056456253 0.42353308 0.3332145 0.8218514 0.36838704
-0.11833451 -0.3729207 0.17419796 0.46861964 -0.033989955 -0.8180849 -0.18618198 0.026705405
-0.35352013 0.06742051 -0.18024167 0.35994014 -0.5872971 -0.30695122 0.0055782455 0.2449828
-0.3411853 -0.13417561 0.06543084 -0.37794596 -0.4664413 -0.23146403 0.37269592 -0.07058542
0.14760555 0.07553841 0.66815454 0.05366461 -0.012219123 0.21473663 0.63568115 -0.054262463
-0.17574611 0.18843651 -0.35054386 0.13595709 0.3047049 0.3022038 -0.116768055 -0.6704558
0.14401242 -0.1851329 0.2465831 -0.06370398 -0.4527075 -0.020240571 0.36854863 0.42427364
-0.16107002 0.32281646 0.11351293 0.2571232 -0.33730838 -0.27489683 0.0025503256 0.11915715
-0.08253066 0.30265713 -0.118113324 0.035543658 -0.14638612 -0.10449203 0.8037619 -0.05778031
-0.6274469 0.5966313 -0.07437438 0.2891258 -0.4296241 -0.23527925 -0.95592326 0.1846899
-0.28438154 -0.041027687 0.62825626 0.5722271 -0.41435856 -1.1903948 0.4411994 0.34652835
0.4956523 -0.058762606 0.11379121 -0.16980809 0.4739919 -0.015877131 -0.13831897 -0.23517059
0.047400735 -1.09122 0.25764754 0.12155718 0.56281734 -0.09192869 0.14880311 0.17100158
0.13394043 1.0514444 0.20883766 -0.46925074 -0.5603164 0.5261527 0.25596824 -0.07607036
0.20495802 0.27630916 -0.38085467 -0.25039288 -0.12683615 1.2921622 0.19079322 -0.15753342
0.082403935 -0.17344593 -0.21293204 -0.28246766 0.08021412 -0.06785793 -0.13807268 -0.041739058
-0.22099403 -0.4469106 -0.39541024 0.70099986 -0.77017045 -0.19846365 -0.07956285 -0.6372299
0.04811758 -0.61242723 0.054427113 -0.2804737 0.966904 0.1538304 -0.018703286 -0.4625933
-0.9496313 -0.2639121 0.74821115 -0.8924266 0.24098796 -0.34011996 0.3699527 0.074350215
0.9981437 0.10710207 -0.08714172 0.52797335 0.19527704 0.9729668 0.16284658 -1.0224894
0.047089618 0.41819602 0.5393427 0.24576306 -0.12040184 -0.0040204297 -0.5677379 -0.023264643
0.5164655 -0.6814211 0.23956744 -0.036487725 -0.28346235 0.08364337 0.33976695 0.21966636
-0.15776041 -0.050347563 0.11387031 0.5467864 0.64996815 -0.10138324 -0.5785576 -0.18074456
0.6957372 0.42907813 -0.04963157 0.23176342 0.26773608 0.16784023 -0.6028861 1.1097764
0.2350617 -0.020714827 0.3548581 -0.07870192 0.11303819 -0.24760358 -0.17472182 0.30542114
00000000: d2aa 873e 9582 10bf 490b 8a3e 7bb4 5abe
00000010: cbc8 043f 0bef e3be b7f8 083f c0e5 c2be
00000020: 73cf 3c3e 3567 5bbd 199b ea3d dcdb e5bd
00000030: e978 07bd 7965 19be 0650 c13e b822 ecbe
00000040: 2e3f a13d 0cf0 813e 0a95 f4be 421e 69bc
00000050: 393f 04bf b6aa 733f 4c27 b3bd 120c 23bd
00000060: dcac 03be 8a9f 973e 0b9a 50be 56ee 0cbe
00000070: cbc7 983e b8d8 8f3e 74eb bebe 1ce3 8a3e
00000080: b5f0 833e ae1a 07bf cc21 aebe 7ce3 04be
00000090: 1835 973e 55b2 dcbd fd76 c6be 429c a0bd
000000a0: eff0 313e 8dd1 69bd 48cb 42bf 199e 9cbd
000000b0: 6e44 553e 2839 fbbd 959c 443c 4740 e7bb
000000c0: 5543 9c3e 78fc 09bd e886 eabe 64b8 88bd
000000d0: 26a8 b5be 1b16 4ebe 149f 5d3e 60b5 f7bd
000000e0: edb8 3fbe cbb4 b43d 94cc 503e ac3e 673d
000000f0: 54d9 d83e 179b aa3e da64 523f 3a9d bc3e
00000100: 5d59 f2bd 76ef bebe f360 323e eaee ef3e
00000110: 0d39 0bbd 036e 51bf 7da6 3ebe 4bc5 da3c
00000120: 9700 b5be c413 8a3d 4691 38be 134a b83e
00000130: 1a59 16bf b628 9dbe b7c9 b63b c5dc 7a3e
00000140: d7af aebe 5565 09be 9b00 863d 2282 c1be
00000150: 65d1 eebe e804 6dbe 00d2 be3e 178f 90bd
00000160: e925 173e e2b3 9a3d 2d0c 2b3f 6ccf 5b3d
00000170: b732 48bc ebe3 5b3e 00bc 223f 5142 5ebd
00000180: caf6 33be 80f5 403e 7c7a b3be 5638 0b3e
00000190: 4802 9c3e 75ba 9a3e 1724 efbd fea2 2bbf
000001a0: fe77 133e 7b93 3dbe 4880 7c3e 3b77 82bd
000001b0: 47c9 e7be 8ecf a5bc 68b2 bc3e 653a d93e
000001c0: 8aef 24be 3348 a53e 7879 e83d a7a5 833e
000001d0: afb3 acbe 47bf 8cbe 5d23 273b aa08 f43d
000001e0: d605 a9bd e0f5 9a3e 66e5 f1bd 3a96 113d
000001f0: 3ee6 15be ebff d5bd 57c3 4d3f 0cab 6cbd
00000200: 5ca0 20bf d4bc 183f 9851 98bd 4c08 943e
00000210: b1f7 dbbe 0bed 70be 63b7 74bf 591f 3d3e
00000220: 759a 91be a60c 28bd 67d5 203f 7a7d 123f
00000230: ce26 d4be db5e 98bf e3e4 e13e 2a6c b13e
00000240: 23c6 fd3e 0fb1 70bd 5e0b e93d 2ce2 2dbe
00000250: 11af f23e c210 82bc 7da3 0dbe 8fd0 70be
00000260: 4627 423d 19ad 8bbf 61ea 833e f9f2 f83d
00000270: cc14 103f 1c45 bcbd d85f 183e 0a1b 2f3e
00000280: ae27 093e bb95 863f 8ad9 553e a241 f0be
00000290: e570 0fbf f1b1 063f 450e 833e c7ca 9bbd
000002a0: 84e0 513e 6578 8d3e 62ff c2be 7f33 80be
000002b0: 56e1 01be 9265 a53f 4c5f 433e 7150 21be
000002c0: 65c3 a83d cf9b 31be db0a 5abe 9a9f 90be
000002d0: 4d47 a43d 19f9 8abd ed62 0dbe 93f6 2abd
000002e0: 424c 62be 77d1 e4be 3673 cabe ba74 333f
000002f0: e429 45bf 0e3a 4bbe d9f1 a2bd 8021 23bf
00000300: f116 453d 08c8 1cbf f7ee 5e3d 409a 8fbe
00000310: 0587 773f b785 1d3e a237 99bc 07d9 ecbe
00000320: 091b 73bf 7d1f 87be c48a 3f3f 1276 64bf
00000330: 8cc5 763e 3424 aebe 716a bd3e ed44 983d
00000340: 5886 7f3f 5458 db3d 5c77 b2bd 4329 073f
00000350: b4f6 473e 5a14 793f 41c1 263e efe0 82bf
00000360: 0be1 403d ca1d d63e 5d12 0a3f 50a9 7b3e
00000370: 3d95 f6bd cfbd 83bb 4557 11bf 7e95 bebc
00000380: 1537 043f 9d71 2ebf 2b51 753e 2774 15bd
00000390: fa21 91be 374d ab3d eff5 ad3e 38f0 603e
000003a0: f28b 21be 3f39 4ebd d634 e93d 32fa 0b3f
000003b0: 5064 263f 04a2 cfbd 5a1c 14bf 1a15 39be
000003c0: d51b 323f 21b0 db3e 794a 4bbd 6453 6d3e
000003d0: b414 893e 4fde 2b3e be56 1abf 270d 8e3f
000003e0: 04b4 703e 24b2 a9bc f6af b53e 792e a1bd
000003f0: 9180 e73d cb8b 7dbe 47ea 32be 2960 9c3e

rnn.weight_hh_l1 f4 [512, 128]
0.4404962 -0.25237802 -0.15216598 0.46509415 -0.20012423 -0.2750586 -0.17147921 0.07238096
-0.25247872 -0.11028542 -0.4066862 0.20134446 -0.35591963 0.45927256 -0.29310864 0.15617412
0.36310998 0.07114928 -0.008311466 0.071582325 0.18047488 -0.07853421 -0.6878025 0.73052275
-0.33856466 0.24657646 0.2983835 0.035989717 -0.11915566 0.44184428 0.36869112 -0.5134583
0.09666731 0.45156282 -0.5473282 -0.27452117 0.16071403 0.054066133 0.3916422 0.42775396
-0.2514903 -0.5574571 -0.37141037 0.002971992 -0.026751457 -0.060021453 -0.65053636 -0.32093498
-0.083829984 0.3226318 0.3978201 -0.08343035 -0.3641522 -0.16798492 -0.20703545 0.10072113
-0.28876567 0.19717395 0.24263379 0.5554202 0.0647763 -0.07680369 0.05140995 0.01943803
0.2129164 -0.35206774 0.54583186 0.6721228 0.3036515 0.024282964 0.5598583 0.32085443
-0.27877325 0.49904752 -0.99413925 -0.35829565 0.076242 -0.30339736 -0.33607045 -0.020012947
-0.12932442 0.45039204 -0.4592887 -0.003394277 -0.21355453 0.06323948 -0.06688704 -0.008058096
0.40481386 0.17658064 -0.066357076 0.5459895 -0.38530073 0.22166143 0.63552904 0.00346284
-0.26805323 0.080607034 -0.15044816 0.14911045 0.7295709 0.22563903 0.022308493 0.009754153
-0.17264043 -1.0945369 -0.67381245 0.4587733 0.1779801 -0.81949 -0.662655 0.53968084
-0.10024894 -0.25600266 0.35640392 0.31427085 0.16545305 -0.04234567 0.282002 -0.14478454
0.09678305 0.3782782 -0.37186354 0.04709973 -0.11415504 -0.2573606 0.81754386 0.4149233
-0.4324381 0.040735397 -0.08144151 -0.8673323 0.3570453 0.14882146 0.23209868 0.07262805
0.011130964 0.23904598 0.39607012 0.1820646 -0.5667373 0.11352896 -0.14400263 -0.1825039
-0.24134594 0.16991813 0.4283908 0.21258879 0.37587073 -0.5719151 -0.064475045 0.30785677
0.54257995 -0.08249797 0.4748923 0.32284018 0.1968566 -0.02614417 -0.25943345 -0.054572176
-0.11798274 -0.15654062 0.11485941 -0.14347227 -0.41394818 0.27125263 -0.034197573 0.12055167
0.4706313 -0.091777295 -0.122376345 -0.23100945 -0.48109907 0.12823875 -0.42414197 -0.07885873
-0.16415979 0.12926857 0.46628392 0.33068222 -0.32411078 -0.36280462 -0.23496038 0.16832589
-0.23171368 -0.7322735 0.23539114 0.5508984 0.6947268 -0.3581879 0.052780636 -0.12883337
-0.11654545 -0.04102703 -0.5745494 -0.33084974 0.14437854 -0.4932803 0.11124307 0.07889316
-0.58881813 -0.4032294 -0.13228665 -0.43029737 -0.16806602 -0.12418205 0.6698329 0.025819283
-0.61368865 0.013174159 -0.5796714 0.44209966 -0.7072651 -0.37676325 -0.50452006 -0.2049756
0.34555843 0.37897828 -0.7185163 -0.3170516 -0.004189687 -0.12168658 0.059856385 0.14066148
-0.57701385 0.20243494 0.2130797 0.3234274 0.15205444 -0.4678033 0.050432656 -0.49696407
-0.14459835 0.36357942 -0.58917993 -0.23114729 0.14745519 -0.080380484 -0.6150616 -0.26701057
-0.16387716 0.17488913 0.0359106 0.07970963 0.21634778 -0.089952566 0.8375227 -0.2552274
0.34017643 -0.10414632 -0.45804054 -0.086664036 -0.018790705 0.048689995 0.011207689 0.5992565
00000000: b888 e13e b137 81be 66d1 1bbe d220 ee3e
00000010: 5eed 4cbe 7bd4 8cbe 3f98 2fbe 783c 943d
00000020: e444 81be 53dd e1bd 2c39 d0be 3e2d 4e3e
00000030: 193b b6be c625 eb3e 5612 96be 1cec 1f3e
00000040: 8de9 b93e b7b6 913d d12c 08bc c199 923d
00000050: 68ce 383e 8bd6 a0bd d313 30bf 8a03 3b3f
00000060: 5958 adbe 8a7e 7c3e b9c5 983e f469 133d
00000070: e207 f4bd 6a39 e23e 15c5 bc3e 0172 03bf
00000080: 83f9 c53d 3e33 e73e b31d 0cbf 0a8e 8cbe
00000090: 3892 243e 7374 5d3d 5485 c83e 9102 db3e
000000a0: 56c3 80be 82b5 0ebf 8029 bebe c0c5 423b
000000b0: df25 dbbc 0ed9 75bd 8d89 26bf 9751 a4be
000000c0: 0eaf abbd ff2f a53e 13af cb3e 88dd aabd
000000d0: 2872 babe 3d04 2cbe 1a01 54be e146 ce3d
000000e0: 18d9 93be f8e7 493e fe74 783e 0530 0e3f
000000f0: 70a9 843d 414b 9dbd 3d93 523d 813c 9f3c
00000100: c206 5a3e 3942 b4be a3bb 0b3f 3d10 2c3f
00000110: 3678 9b3e 11ed c63c e052 0f3f 0847 a43e
00000120: 5ebb 8ebe 2883 ff3e e97f 7ebf 8772 b7be
00000130: c424 9c3d e656 9bbe 6d11 acbe 31f2 a3bc
00000140: 9f6d 04be c999 e63e e327 ebbe 8572 5ebb
00000150: 0aae 5abe b383 813d 13fc 88bd 1b06 04bc
00000160: c343 cf3e 8ed1 343e 38e6 87bd f8c5 0b3f
00000170: 2346 c5be 37fb 623e 08b2 223f d1f0 623b
00000180: 463e 89be 4d15 a53d 150f 1abe 69b0 183e
00000190: 29c5 3a3f eb0d 673e 4dc0 b63c e2cf 1f3c
000001a0: a7c8 30be c919 8cbf f97e 2cbf 55e4 ea3e
000001b0: 6a40 363e 19ca 51bf c2a3 29bf 8628 0a3f
000001c0: 514f cdbd c812 83be 937a b63e 1ce8 a03e
000001d0: 866c 293e a772 2dbd 9162 903e 6642 14be
000001e0: 3136 c63d aead c13e e664 bebe a6eb 403d
000001f0: 1eca e9bd c5c4 83be 8e4a 513f d470 d43e
00000200: 8768 ddbe 29da 263d ceca a6bd 7d09 5ebf
00000210: a4ce b63e a764 183e 47ab 6d3e 04be 943d
00000220: a65e 363c 78c8 743e b4c9 ca3e 246f 3a3e
00000230: b215 11bf df81 e83d 6d75 13be 4de2 3abe
00000240: 6423 77be 05ff 2d3e 0a56 db3e e0b0 593e
00000250: 2172 c03e 0769 12bf 7e0b 84bd 679f 9d3e
00000260: 85e6 0a3f b2f4 a8bd 1525 f33e 4f4b a53e
00000270: c794 493e 4c2c d6bc 76d4 84be 1387 5fbd
00000280: efa0 f1bd 2f4c 20be 693b eb3d 65ea 12be
00000290: 04f1 d3be a0e1 8a3e c112 0cbd cbe3 f63d
000002a0: 96f6 f03e bcf5 bbbd 73a0 fabd be8d 6cbe
000002b0: 9e52 f6be 0551 033e 2329 d9be b080 a1bd
000002c0: 8119 28be fb5e 043e c4bc ee3e 2e4f a93e
000002d0: d9f1 a5be 87c1 b9be 7499 70be 9f5d 2c3e
000002e0: 5a46 6dbe 4776 3bbf 600a 713e ad07 0d3f
000002f0: 9ed9 313f 6864 b7be 8230 583d e5ec 03be
00000300: 62af eebd f60b 28bd ab15 13bf 2365 a9be
00000310: f8d7 133e 3c8f fcbe 68d3 e33d bd92 a13d
00000320: c9bc 16bf 1574 cebe 2776 07be f04f dcbe
00000330: 8019 2cbe 2953 febd 2b7a 2b3f f682 d33c
00000340: b31a 1dbf 6ed8 573c 5865 14bf e35a e23e
00000350: 530f 35bf 1de7 c0be 3a28 01bf 20e5 51be
00000360: 09ed b03e 7109 c23e aff0 37bf 9654 a2be
00000370: a449 89bb d036 f9bd f82b 753d 9009 103e
00000380: 2eb7 13bf 1b4b 4f3e 9131 5a3e 4798 a53e
00000390: 29b4 1b3e ea83 efbe 7992 4e3d 1372 febe
000003a0: 9711 14be 1527 ba3e 7fd4 16bf e0b1 6cbe
000003b0: 7efe 163e 869e a4bd ad74 1dbf 9cb5 88be
000003c0: 6acf 27be 2316 333e fe16 133d cd3e a33d
000003d0: 468a 5d3e 0d39 b8bd e367 563f 2aad 82be
000003e0: 9b2b ae3e aa4a d5bd 4a84 eabe ea7c b1bd
000003f0: f7ee 99bc 296f 473d 74a0 373c e068 193f

rnn.bias_ih_l1 f4 [512]
-0.15262024 -0.1781125 -0.19426161 -0.20654252 -0.13082823 -0.111860216 0.067602105 0.15566778
0.074456446 -0.41346508 -0.18878902 -0.11485941 -0.10760375 -0.00600738 0.07984092 -0.111404404
-0.009741909 0.0026844486 -0.28245023 -0.055363573 -0.14600776 0.0570835 0.01167612 -0.041926574
0.10026867 0.13223164 -0.076034985 0.103439935 -0.026361769 -0.045446303 -0.1471995 -0.17323017
0.18420005 -0.03988169 0.12420491 -0.1450676 -0.07503597 -0.13981315 -0.07594326 0.16616346
-0.13499972 -0.06803074 0.0077405497 -0.1771902 -0.075640365 0.12938824 0.280041 -0.033889335
0.25432268 0.010622013 -0.11566506 -0.18121952 0.025751786 -0.076704524 0.15104003 -0.18303779
-0.04619931 -0.32486558 -0.11224452 -0.05823771 -0.015773762 -0.1226832 0.014605311 -0.12909219
-0.16195792 0.00093771325 -0.022966625 -0.13654235 -0.3965883 0.009860738 -0.1522991 -0.12247742
-0.057227205 0.11312133 -0.03288985 -0.47122383 0.21225518 0.028518556 0.035384495 0.0056132376
-0.23449998 0.04521719 -0.11269346 -0.200603 -0.10333509 -0.17510319 0.187711 -0.20402807
-0.029309627 -0.059339844 -0.124212995 -0.2433905 0.021701097 -0.24774037 -0.1398127 0.015847959
0.075652555 0.0032058374 -0.015024262 0.040883258 -0.2291419 -0.08149775 0.144749 -0.23941031
-0.38999572 -0.049771164 -0.08832754 0.021012831 -0.04163667 -0.048041232 -0.20725389 -0.18808177
0.05797523 -0.020097086 -0.092667855 -0.093938515 -0.09752695 -0.19559276 -0.12071294 -0.08912997
0.31173542 0.18258108 -0.21730785 0.328111 0.03590492 0.053822868 0.24985842 -0.058487277
-0.091182075 0.087191634 -0.28834584 0.19787082 -0.01356784 0.092394166 -0.17991778 0.010286011
-0.33126277 0.34927484 0.18826304 0.15468284 0.1877079 0.23935537 0.11619717 -0.118888415
-0.23239085 0.09465755 -0.12131299 -0.13605851 -0.0042310464 0.17046657 0.18153545 0.15946655
0.095201865 -0.078117065 0.099668406 -0.041359432 -0.20270875 0.14256471 -0.100792766 0.2957207
0.083061494 0.059637308 -0.054170705 0.14219277 0.17228818 0.0990843 0.12997605 -0.072719045
-0.2199369 0.11320949 0.0006337104 -0.11670352 0.06767528 0.035058625 0.19766147 0.0141683845
0.052394096 0.1924689 0.1868472 0.18452646 -0.031428095 0.050221194 0.31562677 -0.07390035
0.06067607 0.01600537 -0.07833742 0.07781358 0.04552315 0.037441224 0.20663083 -0.16009323
0.14469722 0.0973205 0.05327034 -0.048269317 0.24867137 0.07724104 0.25464532 -0.07842777
0.2879258 0.121168815 0.027307535 0.33855614 -0.1163972 0.19863167 0.18704423 -0.14340842
0.122772865 0.11706106 0.25942054 0.02260097 0.2804338 -0.046875052 0.055031627 0.16683865
0.2610516 -0.021864185 0.10579042 0.086851254 0.22402567 -0.14317083 0.24404493 0.11154574
-0.0071650576 -0.23162478 0.17229088 0.12876542 0.17031462 -0.19607864 0.33734524 0.33303428
0.21351545 0.0007539648 0.27952707 -0.15609077 0.15851536 0.21628562 0.10581553 -0.2076114
0.038340997 -0.12109572 0.05484711 0.11169214 -0.07030565 0.2352524 0.29712555 -0.032974888
0.14309625 0.03642018 -0.017650442 0.4560355 0.099534854 -0.0030269057 -0.36157238 -0.1389546
00000000: 7b48 1cbe 2063 36be 84ec 46be e27f 53be
00000010: d6f7 05be f816 e5bd f972 8a3d 6067 1f3e
00000020: 9f7c 983d b2b1 d3be e951 41be 693b ebbd
00000030: 5b5f dcbd 8ed9 c4bb a383 a33d fe27 e4bd
00000040: 879c 1fbc 93ed 2f3b 519d 90be eac4 62bd
00000050: 0f83 15be 63d0 693d 324d 3f3c 33bb 2bbd
00000060: a959 cd3d bb67 073e 3bb8 9bbd 51d8 d33d
00000070: a3f4 d7bc e725 3abd 77bb 16be 4063 31be
00000080: f09e 3c3e fc5a 23bd 255f fe3d 9a8c 14be
00000090: 75ac 99bd 2e2b 0fbe 2488 9bbd c126 2a3e
000000a0: 5e3d 0abe b353 8bbd 70a4 fd3b 5971 35be
000000b0: 56e9 9abd 5a7e 043e 8961 8f3e 8bcf 0abd
000000c0: 9536 823e f407 2e3c cee1 ecbd 9c91 39be
000000d0: 69f5 d23c 4317 9dbd 3daa 1a3e 426e 3bbe
000000e0: 7d3b 3dbd c854 a6be 74e0 e5bd aa8a 6ebd
000000f0: fa37 81bc 5441 fbbd 1d4b 6f3c be30 04be
00000100: 4cd8 25be dfd0 753a 8124 bcbc c2d1 0bbe
00000110: 9f0d cbbe ef8e 213c 4cf4 1bbe 71d5 fabd
00000120: 1367 6abd 28ac e73d 82b7 06bd 4044 f1be
00000130: 6c59 593e bf9f e93c 55ef 103d 40ef b73b
00000140: c320 70be a935 393d d4cb e6bd df6a 4dbe
00000150: 59a1 d3bd 404e 33be 5037 403e bcec 50be
00000160: be1a f0bc 560e 73bd 6263 febd 5c3b 79be
00000170: 80c6 b13c a7af 7dbe 0f2b 0fbe 94d3 813c
00000180: baef 9a3d 0719 523b 5228 76bc 3475 273d
00000190: 2da4 6abe 4be8 a6bd 1539 143e fa27 75be
000001a0: 85ad c7be d9dc 4bbd 12e5 b4bd 1a23 ac3c
000001b0: 368b 2abd e2c6 44bd 5d3a 54be 8298 40be
000001c0: 6f77 6d3d a5a2 a4bc a5c8 bdbd d662 c0bd
000001d0: 36bc c7bd 7849 48be 5938 f7bd c689 b6bd
000001e0: c99b 9f3e 89f6 3a3e f385 5ebe 2afe a73e
000001f0: 0a11 133d 5e75 5c3d e3da 7f3e 5b90 6fbd
00000200: abbd babd 8791 b23d 11a2 93be a69e 4a3e
00000210: a54b 5ebc 2739 bd3d 5e3c 38be a886 283c
00000220: 469b a9be 27d4 b23e 07c8 403e 2e65 1e3e
00000230: 8036 403e 9319 753e c8f8 ed3d c57b f3bd
00000240: def7 6dbe d1db c13d f272 f8bd ec52 0bbe
00000250: 97a4 8abb ca8e 2e3e 6ee4 393e 334b 233e
00000260: 32f9 c23d d7fb 9fbd f31e cc3d 8268 29bd
00000270: e292 4fbe 7cfc 113e 706c cebd b468 973e
00000280: 251c aa3d 4046 743d 1ae2 5dbd fb9a 113e
00000290: 506c 303e b6ec ca3d 7118 053e b9ed 94bd
000002a0: 2437 61be 61da e73d 961f 263a 4102 efbd
000002b0: 5699 8a3d a299 0f3d c567 4a3e 8322 683c
000002c0: 319b 563d 9116 453e df54 3f3e 81f4 3c3e
000002d0: bfba 00bd bdb4 4d3d d599 a13e 1159 97bd
000002e0: 7987 783d b21d 833c 5f6f a0bd ba5c 9f3d
000002f0: 7c76 3a3d f85b 193d 0897 533e 7bef 23be
00000300: 822b 143e f84f c73d 0032 5a3d 0cb6 45bd
00000310: b5a3 7e3e 8d30 9e3d df60 823e bd9e a0bd
00000320: 036b 933e 5b27 f83d 0db4 df3c 3b57 ad3e
00000330: a861 eebd 1a66 4b3e 8688 3f3e a8d9 12be
00000340: 5770 fb3d b6bd ef3d c5d2 843e ab25 b93c
00000350: 0595 8f3e 0e00 40bd d868 613d c0d7 2a3e
00000360: 8ea8 853e 851c b3bc a6a8 d83d 12df b13d
00000370: fc66 653e 609b 12be eae6 793e 1872 e43d
00000380: dcc8 eabb 0c2f 6dbe 056d 303e 15db 033e
00000390: f566 2e3e d7c8 48be 84b8 ac3e 7883 aa3e
000003a0: cba3 5a3e b9a5 453a 2c1e 8f3e 42d6 1fbe
000003b0: da51 223e fa79 5d3e d0b5 d83d 1598 54be
000003c0: 730b 1d3d 0801 f8bd 5da7 603d d9be e43d
000003d0: 69fc 8fbd 01e6 703e d720 983e ad10 07bd
000003e0: d387 123e 542d 153d a997 90bc 7c7d e93e
000003f0: eed8 cb3d 0d5f 46bb 0420 b9be 1d4a 0ebe

rnn.bias_hh_l1 f4 [512]
-0.2970468 -0.22426523 -0.13571276 -0.1579153 -0.13894078 -0.1520678 0.08512807 0.10772327
0.105022594 -0.39866403 -0.2489132 -0.070909865 -0.094862215 0.04532188 0.21552478 -0.18046184
-0.023860607 0.016530719 -0.24695183 0.004542092 -0.11236349 0.12936461 -0.00012373939 -0.024936942
0.24472187 0.15523224 -0.06955477 0.15065873 -0.14895305 -0.028264742 -0.019381525 -0.06561314
0.124269396 -0.12008422 0.2895258 -0.22193809 0.07473536 -0.07668239 -0.017641285 0.25221926
-0.19949815 -0.1203356 0.012619174 -0.20868187 -0.13467044 0.07156365 0.1790036 0.07757306
0.2844098 0.035208564 -0.22789739 -0.14200233 -0.059491433 -0.2365837 0.14566538 -0.20247813
-0.10621777 -0.2186167 -0.16404593 -0.080295585 -0.068076044 -0.108305216 0.042248506 -0.08630782
-0.051906172 -0.035951562 -0.040730495 -0.12382878 -0.4827723 0.016120706 -0.07118485 -0.13436489
0.026206292 0.09744839 -0.079418786 -0.3887551 0.10977438 -0.006529962 0.0582732 0.057099584
-0.11740387 -0.0140192155 -0.16001931 -0.20001478 -0.044979334 -0.23186962 0.14295082 -0.102776244
0.0027456624 -0.08474072 -0.11024191 -0.10240433 -0.056816995 -0.29192212 -0.055729117 0.0313503
0.02007161 -0.031793922 -0.028729007 -0.014428897 -0.21163699 -0.18373783 0.15243033 -0.17492807
-0.2699556 -0.04034007 -0.17521161 0.03756911 -0.13589342 -0.048067175 -0.066601895 -0.15579635
-0.098220795 0.009961707 -0.20734294 -0.2082527 -0.061368167 -0.3118501 -0.01945819 -0.21037164
0.2102859 0.16052689 -0.2804822 0.45897156 0.113988675 0.0033663611 0.103016466 -0.08926424
-0.076650545 -0.057026427 -0.31776348 0.16871406 0.0016086014 0.1586028 -0.0959424 -0.029511489
-0.23435433 0.2038749 0.18078196 0.116777845 0.15089281 0.15778016 0.09245548 -0.19092618
-0.31522107 0.025818937 -0.1732237 -0.07254253 0.053502776 0.16339074 0.17501236 0.1336274
0.17877649 -0.08464175 -0.0108317025 -0.1303541 -0.19801785 0.13420647 -0.12501091 0.19481559
0.0822903 0.08291509 0.11486973 0.20947734 0.18757814 0.17139071 0.09801853 0.022130419
-0.14459357 0.06027543 -0.032116152 -0.2232225 0.03234571 0.0996176 0.18438807 0.11830288
0.057020206 0.26203224 0.30076155 0.15121397 0.09368185 0.124038525 0.18649037 -0.04417139
0.19426867 0.0823023 0.0068054246 0.10326228 0.15786065 0.04931336 0.21746658 -0.1576631
0.22833744 0.084934175 0.028697487 -0.071485884 0.32552722 -0.066277914 0.14167339 -0.0788942
0.36047858 0.2048339 0.07855111 0.41380018 -0.053914253 0.08575681 0.19945182 -0.1458156
0.07869113 0.07319117 0.19106838 -0.035759028 0.20184824 -0.11684456 -0.033342417 0.07857092
0.28012377 -0.116437 0.101904176 0.1623074 0.08314907 -0.14138082 0.22292209 0.10768778
0.097397424 -0.19618662 0.26724315 0.19272204 0.06659862 -0.073092215 0.2292698 0.3384413
0.19338214 -0.011805358 0.22202864 -0.15947694 0.18430856 0.111458234 0.04101485 -0.15915085
0.07756334 -0.082425624 0.17147663 0.108796135 -0.15018572 0.1546158 0.20484479 0.04707535
0.16664787 0.10045739 -0.13000411 0.42586136 0.21622114 0.023808466 -0.30344662 -0.106394894
00000000: 8516 98be c9a5 65be 49f8 0abe 8cb4 21be
00000010: 7e46 0ebe a9b7 1bbe a057 ae3d 059e dc3d
00000020: 1616 d73d b11d ccbe 1ae3 7ebe 3139 91bd
00000030: 1f47 c2bd 70a3 393d 87b2 5c3e fdca 38be
00000040: 5277 c3bc 6e6b 873c f1e0 7cbe d4d5 943b
00000050: d41e e6bd 2878 043e 0ac0 01b9 8f48 ccbc
00000060: 5f98 7a3e 33f5 1e3e bb72 8ebd 4846 1a3e
00000070: 2687 18be 768b e7bc 01c6 9ebc 2f60 86bd
00000080: f480 fe3d b7ee f5bd ba3c 943e bd43 63be
00000090: da0e 993d a80b 9dbd 7584 90bc e222 813e
000000a0: 3e49 4cbe 8372 f6bd a7c0 4e3c b3b0 55be
000000b0: 0ce7 09be f78f 923d b84c 373e a0de 9e3d
000000c0: 299e 913e db36 103d ef5d 69be 0f69 11be
000000d0: 4aad 73bd ff42 72be 4e29 153e 6d56 4fbe
000000e0: b488 d9bd 0edd 5fbe a8fb 27be 0372 a4bd
000000f0: 746b 8bbd 20cf ddbd c50c 2d3d 28c2 b0bd
00000100: 919b 54bd f241 13bd 05d5 26bd f299 fdbd
00000110: ee2d f7be 920f 843c 5dc9 91bd f396 09be
00000120: 94ae d63c 0693 c73d 51a6 a2bd e90a c7be
00000130: 64d1 e03d 4bf9 d5bb e1af 6e3d 41e1 693d
00000140: 7171 f0bd dab0 65bc 1adc 23be add0 4cbe
00000150: 403c 38bd 3b6f 6dbe b361 123e 5a7c d2bd
00000160: 92f0 333b 8b8c adbd 83c6 e1bd 5db9 d1bd
00000170: f0b8 68bd d176 95be 3744 64bd 2c69 003d
00000180: 386d a43c 583a 02bd 1859 ebbc 2e67 6cbc
00000190: 5eb7 58be c525 3cbe b216 1c3e 5820 33be
000001a0: 9f37 8abe a13b 25bd ac6a 33be 11e2 193d
000001b0: a527 0bbe 16e2 44bd 9366 88bd 1489 1fbe
000001c0: fc27 c9bd 6d36 233c b551 54be 3240 55be
000001d0: 305d 7bbd d1aa 9fbe c866 9fbc aa6b 57be
000001e0: 3055 573e 2961 243e 5d9b 8fbe 52fe ea3e
000001f0: e572 e93d 2b9e 5c3b 4cfa d23d 2bd0 b6bd
00000200: f6fa 9cbd 8b94 69bd e5b1 a2be 61c3 2c3e
00000210: b5d7 d23a c668 223e 737d c4bd 14c2 f1bc
00000220: 95fa 6fbe 95c4 503e e81e 393e 3929 ef3d
00000230: a583 1a3e 1f91 213e 4c59 bd3d 2782 43be
00000240: a864 a1be 3c82 d33c 8e61 31be 2e91 94bd
00000250: ba25 5b3d e74f 273e 7136 333e 9fd5 083e
00000260: 2f11 373e a758 adbd 7477 31bc 8c7b 05be
00000270: 31c5 4abe 6c6d 093e dc02 00be bd7d 473e
00000280: d187 a83d 63cf a93d d240 eb3d 3a81 563e
00000290: 7c14 403e 0c81 2f3e f0bd c83d da4a b53c
000002a0: 5610 14be 5fe3 763d 3a8c 03bd 7094 64be
000002b0: ef7c 043d 5004 cc3d 3ad0 3c3e c848 f23d
000002c0: 058e 693d 1729 863e 6bfd 993e d6d7 1a3e
000002d0: 45dc bf3d e907 fe3d 55f7 3e3e 0fed 34bd
000002e0: 5eee 463e 1c8e a83d 0a00 df3b 2d7b d33d
000002f0: 39a6 213e cefc 493d 8faf 5e3e 7072 21be
00000300: 4ad1 693e f8f1 ad3d fe16 eb3c 3167 92bd
00000310: 81ab a63e b7bc 87bd d412 113e 4893 a1bd
00000320: a690 b83e fabf 513e 68df a03d 9edd d33e
00000330: 31d5 5cbd 44a1 af3d 193d 4c3e af50 15be
00000340: d128 a13d 41e5 953d 6ea7 433e 0f78 12bd
00000350: 4eb1 4e3e 334c efbd 0f92 08bd cae9 a03d
00000360: 626c 8f3e 8676 eebd 23b3 d03d e933 263e
00000370: 0f4a aa3d 22c6 10be b045 643e 698b dc3d
00000380: 4d78 c73d 25e5 48be 18d4 883e ed58 453e
00000390: db64 883d 5fb1 95bd b4c5 6a3e 2e48 ad3e
000003a0: f805 463e 436b 41bc 7a5b 633e ec4d 23be
000003b0: 62bb 3c3e 3744 e43d 30ff 273d 71f8 22be
000003c0: 87d9 9e3d c4ce a8bd 9297 2f3e 82d0 de3d
000003d0: 49ca 19be 9b53 1e3e d5c2 513e 15d2 403d
000003e0: bda5 2a3e 9bbc cd3d cc1f 05be 800a da3e
000003f0: 1369 5d3e f909 c33c 5b5d 9bbe 91e5 d9bd
