vqvae_latent_8_colored_codebook_20/best_vqvae_latent_8_colored_codebook_20.pth (torch, 108829 bytes, 44 tensors)

encoder.encoder_layers.0.0.weight f4 [16, 3, 3, 3]
000000 07 37 a2 3e 67 84 43 3f 35 d2 cc 3e 75 44 a2 3e
       0.31682608 0.76373905 0.40004125 0.31692854
000010 0f b7 e1 bd 3e 65 4f bf 64 bd 0b be df c0 c8 be
       -0.11021244 -0.8101386 -0.13646466 -0.3920965
000020 f0 fd 78 bf b3 d9 1f 3f 05 b5 bc 3f 6c 4d 57 3f
       -0.9726248 0.6244156 1.4742743 0.8410251
000030 c8 1e ce 3e a4 7e 46 3e a8 ac f7 bd 82 ad 4b bf
       0.4025786 0.19384247 -0.120934784 -0.79561627
000040 91 2e cc bf aa a6 9d bf b5 fd 9e 3e a8 34 1f 3e
       -1.5951711 -1.2316487 0.31052938 0.1554743
000050 e7 73 d6 3e f8 5a 50 3c 00 6f 32 bd 34 78 de bd
       0.418853 0.012717001 -0.04356289 -0.10862771
000060 3d a8 f9 bd 56 de 8b bd 23 f1 64 bd 88 c9 e1 3d
       -0.12190292 -0.068295166 -0.05589403 0.11024767
000070 b8 cd 24 be e1 76 51 bf c3 c2 6e bd d0 d8 37 be
       -0.160941 -0.8182202 -0.058291208 -0.17953801
000080 1b 8c 21 be 44 8e c7 be 1a 11 92 bf 09 d7 7f bf
       -0.15776102 -0.38975728 -1.1411469 -0.9993749
000090 68 6b 73 3e 2d 96 46 be 52 62 66 be 47 dd c5 be
       0.23771441 -0.19393225 -0.22498444 -0.38645384
0000a0 ac b8 9d bd 07 81 de bf 58 16 a2 bf e3 7f 7d bf
       -0.07701239 -1.7383126 -1.2663069 -0.99023265
0000b0 ee bd ec bf 57 36 18 bf 78 43 cf 3d b7 c4 5e bf
       -1.8495462 -0.59457916 0.101202905 -0.87018913
0000c0 09 2a 28 bf e1 4d 00 3e cb d3 a1 bf 78 4a 14 bf
       -0.6568914 0.12529708 -1.2642759 -0.5792613
0000d0 eb 16 e6 be a0 9c bb bf 47 91 bc 3d e8 3b ba 3e
       -0.4493936 -1.4657173 0.09207397 0.3637383
0000e0 b4 00 b5 3d b4 ca ce 3e 39 9c d5 3f 00 e5 3f 3f
       0.08838025 0.40389025 1.66883 0.749588
0000f0 46 96 f7 be 65 58 15 3f 41 59 07 be 74 3b 34 be
       -0.48356837 0.58338004 -0.13217641 -0.17600805
000100 8b e4 7c 3e 68 dd e4 be f8 bd 29 3f 2b 80 0e 40
       0.24696557 -0.4470017 0.66305494 2.2265728
000110 99 89 37 3f 0f 25 20 be 97 d5 08 3f ec 98 21 3d
       0.7169433 -0.15639137 0.5345091 0.03945248
000120 dd 9d 7a be 5e 41 a2 3e ca 1b fd be 08 ea 67 3e
       -0.24474283 0.31690496 -0.49435264 0.2264787
000130 a2 54 92 3f 62 ab 85 3f 21 87 e0 be 0c d2 92 3f
       1.1432078 1.0442927 -0.43853095 1.1470351
000140 f3 a5 20 be 81 5e 15 be 50 b5 c6 be d1 a0 1b 3d
       -0.15688305 -0.14586832 -0.38810205 0.037995163
000150 8f c4 a3 3e 07 1b 15 bd 7d eb 33 3f 4e d9 18 3f
       0.319859 -0.03640273 0.702812 0.5970658
000160 74 70 db 3d 1c 75 13 3f c9 b6 14 3f 88 4c 80 bf
       0.10714808 0.5760057 0.5809141 -1.0023355
000170 05 77 ae be e0 75 d6 3f d7 e4 30 bd 04 16 58 3f
       -0.3407518 1.6754723 -0.04318699 0.84408593
000180 ac bd e4 3f ab 81 82 3e 58 cb 2d 3f cf 56 ea be
       1.7870383 0.25489554 0.678884 -0.45769355
000190 35 67 d6 bc 5c d0 53 bf 53 8e c4 be c7 a0 97 bd
       -0.02617226 -0.82739806 -0.38389835 -0.07403713
0001a0 ad ca fd 3d fe 71 56 bf 5e a1 4a bf 03 a5 65 bf
       0.12392173 -0.8376769 -0.79152477 -0.8970491
0001b0 42 f7 79 3f 16 0a e9 3e ad 30 4e 3f 70 9e de 3e
       0.9764291 0.45515507 0.80543023 0.43480253
0001c0 2d 14 06 3f 5f 66 c4 3e cc eb 53 3e c7 9b f1 3e
       0.52374536 0.38359353 0.20695418 0.4718916
0001d0 1e 4f ff be 0c 0c c8 3f 67 65 40 3e ff d6 01 3f
       -0.4986505 1.5628676 0.18788682 0.50718683
0001e0 08 73 ff 3c ab b1 87 be a7 84 ca 3e dc 86 60 3f
       0.03118278 -0.26502737 0.3955433 0.8770578
0001f0 d1 73 04 3f 00 3d 5b 3f a5 be c3 3f 85 86 11 3f
       0.5173922 0.85639954 1.5292555 0.56845886
000200 97 fd 35 3f 55 36 11 3f 8b 90 d4 3e 71 61 ab 3e
       0.7109007 0.5672353 0.41516528 0.3347278
000210 4f 3f 0a 3f e5 3c b1 3e b4 e3 a5 bd 22 04 0d bf
       0.5400285 0.3461677 -0.081000715 -0.5508443
000220 b9 ed 2e bf 04 ea 30 bf fa 54 d8 3e e1 fa cb 3e
       -0.68331486 -0.6910708 0.42252332 0.39839843
000230 13 78 2e 3f 4b c3 ae 3f 9f fc 9e 3e e7 0d 63 3f
       0.6815197 1.3653349 0.3105211 0.8869309
000240 04 7e 1d bf 19 39 10 bf b8 ab 98 3c 82 85 da 3d
       -0.6152041 -0.56337124 0.01863657 0.10669996
000250 00 98 10 3f a1 06 d3 3e 3c cc 1a bf e8 67 0d be
       0.56481934 0.41215995 -0.60467887 -0.13809168
000260 40 be 31 be b8 33 50 be ac bb 34 bf b2 2b 81 bf
       -0.17357731 -0.20332229 -0.70598865 -1.009146
000270 d4 f9 5c 3f ca 03 f9 3d 5a 9f 93 bd c5 a2 c0 3f
       0.8631871 0.12158926 -0.07208128 1.5049673
000280 7e f2 a2 3e c6 60 4e 3f 5d 94 85 bf 8e 81 82 bf
       0.31825632 0.80616415 -1.0435902 -1.0195787
000290 c9 41 63 bf 36 52 61 be f5 ce 26 be 94 89 45 be
       -0.88772255 -0.22004017 -0.16289885 -0.19290763
0002a0 f1 80 a3 bf bc 9b 4a bf 4d 5a 68 bf a8 e6 05 bf
       -1.2773725 -0.7914388 -0.9076279 -0.5230508
0002b0 69 02 97 be 4a a9 0f be bd b5 f1 3e 0f 69 15 3f
       -0.29494026 -0.14029422 0.47208968 0.5836343
0002c0 5e d1 62 3f b9 28 0c 3e 86 99 e8 3d 4d 0a 90 bd
       0.8860072 0.1368741 0.11357407 -0.07033215
0002d0 fc 43 3f bf 7e d9 e2 be f2 a5 38 3e 75 80 b3 3e
       -0.7471311 -0.44306558 0.18032053 0.35058942
0002e0 d0 29 fb 3e 9e 6a 98 3f 20 79 33 3f ea 9e 11 3f
       0.49055338 1.1907537 0.701067 0.5688311
0002f0 c3 60 57 3f af 82 76 3e 58 91 2f bf 5b 8e 2f 3d
       0.8413202 0.2407329 -0.6858115 0.04286037
000300 73 35 00 bf f9 9a 9d bf 75 a0 b5 3e 52 a4 59 3d
       -0.5008156 -1.2312919 0.35473981 0.053135224
000310 5c dd c5 bb b4 a5 df 3f 2a 1c d9 bd c7 53 44 bf
       -0.006038351 1.7472444 -0.10601075 -0.76690334
000320 01 4f b6 3e f7 ee 57 bf 2c 2b 8f bf 6b 05 f4 3e
       0.3560715 -0.84349006 -1.118505 0.47660384
000330 6c cd dc bd 08 3d fe 3e ef bb be 3f ff 67 92 bd
       -0.107813686 0.49655938 1.4901103 -0.07148742
000340 25 a0 c6 bb f4 6a a7 3e 9f c9 4e bf a2 c3 21 bf
       -0.006061571 0.32698786 -0.807764 -0.63189137
000350 2e b9 4d be e7 27 e3 3d 85 82 3a 3e 70 eb 9d 3f
       -0.20090172 0.11091595 0.18213852 1.2337475
000360 41 da 4f 3e 89 7f 8c 3e 75 83 82 be a0 79 da 3e
       0.20298101 0.27441052 -0.2549092 0.42670918
000370 f7 ae d0 3e 3a 9c 99 bf b3 86 55 3f 0d 11 19 3f
       0.40758488 -1.2000802 0.8340866 0.5979164
000380 7e a0 73 bf ad 0c 58 bd a7 2a 87 3d bd d2 be be
       -0.95166767 -0.052746464 0.06599932 -0.37270156
000390 3b 1e 71 3f af 39 a7 3e ba 45 a3 bf 7f 6b 9a 3f
       0.94186753 0.32661197 -1.2755654 1.2064055
0003a0 06 2e 0f bd 93 71 b7 bf 83 73 25 bf 0a d5 a7 bd
       -0.034956 -1.4331535 -0.6462938 -0.08194931
0003b0 cc 1e 32 bd 14 e3 8a be f3 7e cf 3e 20 2d a3 be
       -0.0434864 -0.27126372 0.40526542 -0.31870365
0003c0 dc 94 86 3e f9 48 8b 3e 31 09 e7 be 2a 59 bd be
       0.26285446 0.2720411 -0.451242 -0.3698209
0003d0 b4 6e 6f bd ee 26 f0 3e 1f d7 2d bf 54 c6 83 be
       -0.058455184 0.469047 -0.67906374 -0.2573725
0003e0 70 09 c1 3e 15 c8 ae be 3a e1 96 be 2a 9f 5e 3e
       0.37702513 -0.34137025 -0.2946871 0.21740404
0003f0 9d cb ea be 0a 37 79 3f 38 3d d0 3f 1b 3d a9 bf
       -0.4585847 0.9734961 1.6268682 -1.3221773

encoder.encoder_layers.0.0.bias f4 [16]
000000 2a 40 7a 3d a4 86 ed 3e da d0 5f bd 7d 34 b6 be
       0.061096348 0.46391785 -0.054642536 -0.3558692
000010 21 0e b4 bd fd ec a7 bd 07 35 d6 3c 83 b2 b5 bc
       -0.087917574 -0.08199499 0.026148332 -0.022179848
000020 b6 04 32 bc d4 3b 41 be 16 28 b6 bb e3 f4 03 be
       -0.010865381 -0.18870479 -0.005558978 -0.12886386
000030 00 16 55 3d 25 28 1a 3d b3 70 94 3d 68 0a 43 3d
       0.052022934 0.03763594 0.07248058 0.047617346

encoder.encoder_layers.0.1.weight f4 [16]
000000 2e 0c 89 3f 97 6e 29 40 57 21 b9 3f 1d 2b 42 3f
       1.0706842 2.6473749 1.44633 0.75847036
000010 99 57 c7 3f 34 e3 7d 3f 34 ed 45 3f 62 e8 8f 3f
       1.5573608 0.9917481 0.7731507 1.1242793
000020 d4 0a 58 3f 17 9d 83 3f 8c 6d b3 3f 9c fe 1a 3f
       0.8439152 1.0282315 1.4017806 0.60544753
000030 27 1f 18 3f bc dd 11 3f 51 ae bc 3f 5f 01 82 3f
       0.59422535 0.56978965 1.4740697 1.0156668

encoder.encoder_layers.0.1.bias f4 [16]
000000 e7 2c 60 3e 15 ad 6c 3f 7f fe 15 3f 83 59 a7 3f
       0.21892129 0.924516 0.58591455 1.3074192
000010 e9 a8 f1 be 89 ea d5 3d 9e 24 f2 3d 16 06 02 be
       -0.4719918 0.10445125 0.118233904 -0.12697634
000020 fb 85 c9 3e ba 4f 0c 3e 55 34 89 ba d0 4d 97 3e
       0.3936003 0.13702288 -0.0010467867 0.29551554
000030 98 40 08 3f 92 1d 21 40 54 51 7e be 1a 24 03 3f
       0.5322356 2.5174298 -0.24835712 0.5122696

encoder.encoder_layers.0.1.running_mean f4 [16]
000000 fa b4 3d 3f e9 ce 5d 41 cd cb 05 c1 f7 e7 04 c0
       0.74104273 13.863015 -8.362256 -2.076658
000010 eb c9 2a c1 5d 75 28 c0 95 fe b1 3f 90 e2 82 be
       -10.674296 -2.6321633 1.3905817 -0.25563478
000020 0e a5 8c 3f fe e0 8d 3f 40 1a 51 40 16 a6 41 be
       1.0987871 1.1084287 3.2672272 -0.18911013
000030 88 0a 1b 40 3f 8e fb bf 28 b3 9a 40 4e 6d 45 c0
       2.4225178 -1.9652785 4.8343697 -3.0847964

encoder.encoder_layers.0.1.running_var f4 [16]
000000 ac 5a 91 40 87 e3 99 41 4f 95 10 41 f6 9b 26 40
       4.5423183 19.236097 9.036452 2.603269
000010 22 d6 7b 41 2f e0 93 40 4a 89 6c 40 ca 8a 45 40
       15.7397785 4.621116 3.6958795 3.086596
000020 33 a5 2a 40 bf 0b 1e 40 bf 10 9a 40 c7 11 d1 3f
       2.666333 2.469467 4.814544 1.633355
000030 a1 fd 17 40 ce e4 f2 3f d0 bb b5 40 f5 24 97 40
       2.3748553 1.8976076 5.6791763 4.7232614

encoder.encoder_layers.1.0.weight f4 [32, 16, 3, 3]
000000 f0 7e 3e bf a3 16 e2 be 69 6c 33 bf 73 59 b1 bf
       -0.7441244 -0.44157895 -0.70087296 -1.3855423
000010 77 87 a1 bf 4c 40 06 bf a6 62 7f 3c e5 53 ae 3e
       -1.2619466 -0.5244186 0.015587484 0.3404838
000020 92 d9 c8 3f f6 d6 38 3b 9d ee dd be d2 70 c0 3e
       1.5691397 0.0028204299 -0.4334611 0.37586075
000030 45 75 2e 3d 47 fe 2b bf b4 c8 90 3f e3 d9 3a 3f
       0.042592306 -0.6718487 1.131125 0.7298872
000040 70 27 04 bf 8e 93 90 be 2e 8c 0a 3f 2f 17 66 3f
       -0.51622677 -0.28237575 0.5412015 0.89879125
000050 7c 17 31 be df 0f 22 3f e2 3c aa 3f 4d 03 5a be
       -0.17294115 0.6330547 1.329983 -0.21290322
000060 17 aa 72 bc 30 4d b6 3f 78 d2 dc 3e 36 d1 29 bf
       -0.01481106 1.4242306 0.43129325 -0.66334856
000070 13 1e d3 be 7a 08 21 be 45 1a 14 3f 0e 6d 44 bf
       -0.41233882 -0.1572589 0.57852584 -0.76728904
000080 14 f5 2c bf 55 91 36 3f b8 d9 d6 3e 01 08 0b 3d
       -0.6756146 0.7131551 0.4196298 0.03394318
000090 fe 06 3e 3f 4f 47 91 3e 7f 4a 53 be 66 ec 00 3f
       0.7422942 0.28374717 -0.20633887 0.50360715
0000a0 57 f4 13 be f8 0d b0 3c 50 9a 1d 3f 16 21 a2 be
       -0.14448677 0.021491036 0.6156359 -0.31665868
0000b0 fb 7f c5 3e 48 aa 84 3e 59 f0 8a 3f 28 61 15 3f
       0.38574204 0.25911164 1.0854598 0.58351374
0000c0 a4 86 08 bf 5e 5b 23 3f 44 17 5f bd 73 d5 e4 be
       -0.53330445 0.6381129 -0.054465547 -0.446941
0000d0 9b 95 a8 3f 08 18 49 3f 16 30 04 3e 96 19 fe bd
       1.3170656 0.78552294 0.12908968 -0.12407224
0000e0 95 28 bd bd 13 09 06 bf d2 46 96 be 37 b3 39 be
       -0.09236256 -0.52357596 -0.29350907 -0.18134771
0000f0 ca 4b 97 be 71 68 06 bc 81 45 2a bf d3 00 51 3f
       -0.2955001 -0.008203612 -0.66512305 0.8164188
000100 5c e5 4d 3f 5a 6e 05 bf 8a 5e 3b 3e 2d 60 01 3e
       0.804281 -0.5212151 0.18297783 0.12634344
000110 55 c1 eb be cc fe df be 1c 1d af bd 54 ac 6c 3e
       -0.46045938 -0.43749082 -0.08550474 0.23112613
000120 bc d5 d9 3e 92 a0 46 bf d3 e0 51 bf e5 c4 6a 3e
       0.4254588 -0.7758876 -0.8198368 0.22926672
000130 70 d7 cc be d6 58 33 bf 30 d3 68 bf 9b 97 b2 bf
       -0.40008116 -0.7005743 -0.90947247 -1.3952516
000140 a5 e6 6a bf 71 70 12 3e 72 bd 1a 3f 28 39 27 be
       -0.91758186 0.14300705 0.6044532 -0.16330397
000150 38 53 92 bc 50 69 59 3d e3 21 dd be b6 43 93 bd
       -0.017861947 0.05307895 -0.43189916 -0.07190649
000160 de c0 bf be 5f 5a 45 3d a8 e1 40 3e fc 09 6d 3f
       -0.37451833 0.048181888 0.18836081 0.9259336
000170 a8 0d 44 be a2 3d 04 be 2f c4 b1 be 33 8d a1 be
       -0.19145834 -0.12914136 -0.3471999 -0.3155304
000180 b9 ba ae bf d0 bb 76 bf a3 32 da 3e 01 f6 c2 3e
       -1.3650733 -0.9638033 0.42616758 0.3807831
000190 4c 0f 6d 3e aa 63 9e 3d 35 77 28 3f 87 4b 42 be
       0.23150367 0.07733853 0.65806895 -0.18974124
0001a0 f1 25 18 bf 1e 49 fc 3e 01 eb 30 3f 8d 86 23 3f
       -0.59432894 0.49274534 0.6910859 0.63877183
0001b0 4b ef 15 3f 46 eb 65 3e c8 8e 47 3f b5 53 44 3f
       0.5856826 0.22453031 0.7795224 0.76690227
0001c0 83 8d 56 3f 4c 07 f5 3e 7c 43 dd 3e fa 47 9c bd
       0.8380968 0.4785713 0.4321555 -0.07630916
0001d0 be ba 17 bf 51 f9 3c 3f 02 f9 c5 3f b3 34 55 3f
       -0.5926932 0.73817927 1.5466616 0.8328354
0001e0 30 75 56 bf c2 21 34 bf 34 16 81 be 00 c0 40 bf
       -0.83772564 -0.7036401 -0.25212252 -0.7529297
0001f0 47 26 d7 3d 26 79 db 3e ad 65 b9 be 9d 0f b0 bd
       0.10505348 0.42865866 -0.36210385 -0.08596728
000200 fb 68 78 be 29 d8 8d bf 22 7d 20 3f 1a 14 4a 3f
       -0.24258797 -1.1081592 0.6269094 0.7893692
000210 ff 82 fb 3e 1f 4b b2 3f 56 47 1d 3f 90 b5 62 3e
       0.4912338 1.3929175 0.61436975 0.22139573
000220 d1 3d a7 3e 49 b4 95 3f 8c 3d 84 bd 76 5a f1 bd
       0.3266435 1.1695644 -0.06457052 -0.11784832
000230 54 f2 31 bf 93 29 41 3f 47 cb 9c 3f f1 d3 03 bd
       -0.6951039 0.7545406 1.2249535 -0.032184545
000240 99 23 77 3d c1 02 16 3e 5b 12 8e 3e e9 cd 28 3f
       0.060336683 0.14649488 0.2774838 0.65939194
000250 97 c1 d6 3d ab 67 52 bf 99 bd d9 bc 23 ed 27 3f
       0.10486143 -0.82189435 -0.026579665 0.65596217
000260 dd 3d 12 3f dd 30 fa be 96 d7 ec be 54 2f c5 bf
       0.57125646 -0.48865405 -0.4625823 -1.5405068
000270 b7 e1 0a 3e 8c 32 e9 3d 49 a2 2d bf 21 37 04 be
       0.13562666 0.11386594 -0.6782575 -0.12911655
000280 96 b3 30 bf 69 89 d1 bf fc 30 8b 3f c6 a8 91 3f
       -0.69024026 -1.6370059 1.0874324 1.137963
000290 6a 0f 92 3f 29 65 0e 3f e5 b2 62 bf 95 1c 02 bf
       1.1410954 0.5562311 -0.8855422 -0.5082486
0002a0 24 9c 98 3e 15 3e a5 bd 98 3c 5e 3d cd 42 e4 bd
       0.29806626 -0.08068482 0.054257005 -0.11145554
0002b0 43 24 12 bf 83 b5 7e 3e 1a c4 0e 3f 42 92 b3 bf
       -0.5708658 0.24873929 0.5576798 -1.4029009
0002c0 8e f1 0f bf db 25 2c 3f e8 ac a6 be 0c 20 a1 bd
       -0.5622796 0.6724526 -0.32553792 -0.078674406
0002d0 31 83 9c be 25 3b 03 bf b8 52 08 bf db e9 8b bf
       -0.3056884 -0.5126212 -0.5325122 -1.0930742
0002e0 aa 72 91 bf 20 a7 78 bf 0b f8 96 be b9 9c 8a 3b
       -1.1363118 -0.9713001 -0.29486117 0.0042301086
0002f0 8d 9f 50 3e e9 91 39 3e 28 dd 56 3e eb e4 0b 3e
       0.20373364 0.18122067 0.20982802 0.13661544
000300 8e e7 8b 3e 05 f3 1c bf 2a 40 20 bd f0 bf 7c 3f
       0.273251 -0.6130832 -0.03912369 0.98730373
000310 78 60 39 be f6 b5 01 bf ff 3d 6e bf 11 59 0b bf
       -0.18103206 -0.50668275 -0.9306335 -0.5443278
000320 b7 97 3b bf aa 6e 8b bf e2 92 bb bf 05 1d ea be
       -0.73278373 -1.0893147 -1.46542 -0.45725265
000330 09 3d 01 bf 6d 45 a6 be 54 08 a4 3d 9a 29 24 3f
       -0.5048376 -0.32474843 0.08009401 0.6412598
000340 42 7d 6b 3e 9e 65 4f bf 39 68 af 3f 69 56 85 bd
       0.22997001 -0.8101443 1.3703681 -0.06510622
000350 e8 f1 63 be b3 e0 4c 3f fb ec 0b 3f 06 6d 19 3f
       -0.22260249 0.80030364 0.5465848 0.5993198
000360 26 26 72 3e 28 b4 4f 3e 9b 55 3f 3f 9c 17 ac 3e
       0.23647365 0.20283568 0.7474 0.33611763
000370 9e 17 3b 3e 05 36 01 3f 98 2d 06 3e 3d 1c a0 3e
       0.18270728 0.5047305 0.1310333 0.31271544
000380 e5 0b d1 3e 30 fd 05 bf de 4e a1 3f f8 8a 5f 3f
       0.40829387 -0.5233946 1.2602193 0.87321424
000390 7f 9c 6b bd 7e ef 32 3f cb f7 5a be d0 28 8e 3e
       -0.057522293 0.69896686 -0.21383588 0.27765512
0003a0 c7 29 36 3e 5b 59 6a be 40 c8 a8 3f 12 30 18 3f
       0.17789374 -0.22885649 1.3186111 0.5944835
0003b0 bb bb 3c 3f 73 33 bc 3f 66 0b 74 3f a1 3c 9e 3e
       0.73723954 1.4703201 0.9532989 0.3090563
0003c0 53 a6 f0 3d 08 7c c0 3c c3 a2 2c 3f ea 7c 96 be
       0.11750474 0.023496643 0.67435855 -0.29392177
0003d0 51 2c 94 3f 27 7d 50 3f c6 c4 63 bd 69 38 5b be
       1.1576024 0.8144097 -0.05560758 -0.21408238
0003e0 1c f8 02 3e 71 55 6a 3f 65 ec fc be 90 d8 21 bf
       0.12789959 0.91536623 -0.49399105 -0.63221073
0003f0 d7 02 5e bf 34 63 bb be ba 0a 68 be 30 63 14 3f
       -0.86723083 -0.36599123 -0.22660342 0.5796385

encoder.encoder_layers.1.0.bias f4 [32]
000000 02 49 1e bd 07 e5 c9 3d 00 eb d2 bc 58 99 7f bc
       -0.038643844 0.098581366 -0.025746822 -0.015600525
000010 92 c7 92 bd b6 62 9d 3d 32 4c 78 bd 1d 11 91 3d
       -0.07166971 0.07684843 -0.06061954 0.07083342
000020 11 ba 66 bd f7 cb 9f 3d cd 4c c8 bc d7 c9 90 bd
       -0.05632979 0.07802575 -0.024450684 -0.07069748
000030 e6 a0 16 bb c5 fd d2 3c 31 f5 07 bd 98 57 ca bc
       -0.0022984087 0.025755772 -0.033192817 -0.024699971
000040 91 f4 a1 3c 4d 0e 12 3d 32 e1 6e 3d fa 03 8a bc
       0.019769939 0.03565817 0.05832023 -0.0168476
000050 16 b2 b0 3d d2 cb 8f 3c 3b 61 b0 3c b2 48 95 bd
       0.08627717 0.017553244 0.021530738 -0.07289256
000060 b9 11 66 3d 7e bb 72 3d 0e 47 9e 3d 54 ce b0 bd
       0.056169245 0.059260838 0.07728396 -0.08633104
000070 28 19 38 bd f7 85 80 3c b1 3a 36 3d f6 af 49 bd
       -0.044945866 0.01568888 0.044489566 -0.049240075

encoder.encoder_layers.1.1.weight f4 [32]
000000 33 e2 67 3f 98 c5 46 3f 6f 97 9a 3f 4a 64 93 3f
       0.9057953 0.77645254 1.2077464 1.1514981
000010 3e fd 56 3f f7 c5 76 3f 24 33 e4 3f e1 f9 c5 3f
       0.83980167 0.9639582 1.7828107 1.5466882
000020 fd 7d 6b 3f f3 35 dd 3f 91 c1 a9 3f 2d fa 47 3f
       0.9198912 1.7282089 1.3262197 0.7811611
000030 4c d4 9a 3f ce f2 c3 3f 4d e3 88 3f 17 88 4c 3f
       1.2096038 1.5308473 1.0694367 0.79895157
000040 d7 60 e3 3f 8b b9 52 3f 62 27 b7 3f 3e fd 1d 3f
       1.7763928 0.82314366 1.4308894 0.6171454
000050 19 e0 aa 3f 25 59 a4 3f 71 52 9d 3f 10 e3 9c 3f
       1.3349639 1.2839705 1.2290784 1.2256794
000060 b0 cd fc 3f f4 d4 89 3f c4 01 59 3f 56 79 44 3f
       1.9750271 1.0768113 0.8476832 0.76747644
000070 fb 30 82 3f 8a d5 8b 3f 32 ee 8d 3f ec f1 04 40
       1.0171198 1.0924542 1.1088316 2.0772657

encoder.encoder_layers.1.1.bias f4 [32]
000000 1e 65 cc 3d ee 02 96 3d c6 6c fe bd ad a5 db be
       0.09980224 0.073247775 -0.12423091 -0.42899838
000010 1a f0 5c 3d f2 2c ac be 23 39 01 bf ee 84 49 bf
       0.053939916 -0.3362804 -0.5047781 -0.7871846
000020 c9 15 53 3e 00 e0 44 bf 9c 8d 54 3e b1 23 86 bc
       0.20613779 -0.76904297 0.20757145 -0.01637444
000030 4d 11 7a 3f 0c a4 64 bf 7e 0d 05 bf c9 95 54 3e
       0.9768265 -0.89312816 -0.5197371 0.20760264
000040 aa fb ff bd c3 0e 6d 3e a6 b4 b6 be 32 6c 79 3e
       -0.12499173 0.23150162 -0.356847 0.2435768
000050 11 fd 53 bf 1e 0c 03 bf db 13 23 bf cd ed c5 be
       -0.82808024 -0.51190364 -0.6370217 -0.3865799
000060 34 c8 98 3e 62 89 0b be a1 a5 12 3d 09 7b b8 be
       0.29840243 -0.13626626 0.035802487 -0.36031368
000070 7c a9 b7 be 5e d8 a1 be 4d 73 75 be b4 a9 62 be
       -0.35871494 -0.31610388 -0.23969765 -0.22135049

encoder.encoder_layers.1.1.running_mean f4 [32]
000000 c6 8e 9c 40 a0 fa b1 3f 45 da c1 c0 d9 78 cc 40
       4.8924284 1.390461 -6.057894 6.389752
000010 d0 f7 23 41 21 27 a0 3e 96 70 1e c1 de 20 7f 40
       10.248001 0.31279853 -9.902487 3.986381
000020 8f 82 80 40 1e f2 f1 c0 2d 89 76 bf e5 c8 c7 be
       4.0159373 -7.5608053 -0.96303064 -0.39020458
000030 d1 ab 0f bd 4e 19 ed 40 00 94 ae 40 ca 63 83 40
       -0.035075966 7.409339 5.4555664 4.1059313
000040 1c 34 25 c1 45 71 47 c1 53 c8 42 c1 9a 1c cc 3e
       -10.325222 -12.465154 -12.173907 0.3986557
000050 1b f3 1c c0 f9 14 02 be 7d e6 46 c0 72 c6 30 40
       -2.452338 -0.12703313 -3.107818 2.7621121
000060 9d 75 02 c1 d5 02 35 c1 a5 47 9e 41 49 28 0a c0
       -8.153714 -11.313191 19.784983 -2.1587088
000070 a6 97 28 c1 bb ef 87 c1 0e 92 9d 40 94 ca 67 bf
       -10.537024 -16.992056 4.924079 -0.90543485

encoder.encoder_layers.1.1.running_var f4 [32]
000000 55 73 f6 42 74 28 77 42 39 57 e1 42 99 f5 98 42
       123.22526 61.789505 112.67036 76.47968
000010 72 de 10 43 38 03 29 42 e4 ec 30 43 5b e4 12 43
       144.86893 42.253143 176.92535 146.89201
000020 50 42 d9 42 22 18 1c 43 61 26 b5 42 27 76 69 42
       108.62952 156.09427 90.57496 58.365383
000030 76 4b 37 43 24 23 05 43 b9 ec 9f 42 62 07 8a 42
       183.29477 133.13727 79.96235 69.01442
000040 e1 5d 38 43 f9 7c c9 42 cb 38 bb 42 79 00 3a 42
       184.36671 100.74409 93.61092 46.50046
000050 e9 ec ab 42 09 7c e5 42 ce c3 a4 42 65 68 03 43
       85.962715 114.742256 82.38243 131.40779
000060 61 d1 28 43 db e6 b1 42 2a 8a b3 42 45 96 3a 42
       168.81789 88.95089 89.76985 46.646748
000070 b1 ca 8a 42 20 3d 72 42 5e bc ba 42 8e b7 0e 43
       69.39588 60.559692 93.367905 142.71701

encoder.encoder_layers.2.0.weight f4 [8, 32, 3, 3]
000000 8e 4d 07 3e 88 8e ef 3d 47 7e 8b 3d 32 75 ab be
       0.13213179 0.116971076 0.06811195 -0.3348785
000010 69 46 8f 3e ee 39 2b bf 3f bb 99 3f aa c8 e4 be
       0.27983406 -0.6688527 1.2010268 -0.44684345
000020 6f ca b1 3e 7d 9d 18 3f 56 7a 90 be 76 56 a2 3c
       0.34724757 0.5961531 -0.28218335 0.019816618
000030 54 59 23 3f b9 1d b1 3e eb 77 9e bd 2b 2e bb 3e
       0.6380818 0.3459299 -0.07737716 0.3655866
000040 a7 19 dd be 45 e8 1c bf 39 5c 6f bf 6b 87 7a be
       -0.43183634 -0.61291915 -0.93500096 -0.2446572
000050 10 ac 72 bd 90 b2 72 bd 8a 6e 8d bf f1 72 b3 bf
       -0.059246123 -0.05925232 -1.1049359 -1.4019452
000060 96 2e f3 bf 76 e6 03 c0 46 5b de bf c3 e9 a4 3f
       -1.8998592 -2.0609412 -1.7371604 1.2883838
000070 73 82 89 3e e8 fa 14 3c 60 fa 50 bf 32 d0 c6 3e
       0.26857337 0.009093024 -0.8163204 0.38830715
000080 14 27 e1 bd 29 e6 08 40 ab d0 1e bf 83 f5 32 3f
       -0.10993782 2.1390479 -0.6203715 0.6990587
000090 db 00 a1 3e 35 18 a2 3d cc c5 0f be 24 13 c2 bd
       0.31445965 0.079147734 -0.14040297 -0.09476307
0000a0 19 6d 6e be 01 c6 1b bf f9 6e 0f bf 72 8b 7a 3f
       -0.23283805 -0.60849005 -0.56028706 0.97869027
0000b0 22 dd f0 be 3c 9b 1a be 90 82 89 be f3 27 fd be
       -0.4704371 -0.1509828 -0.26857424 -0.4944454
0000c0 57 38 19 3e 6a 11 b7 bf d9 a5 c6 bf 79 d5 83 bf
       0.14962898 -1.4302189 -1.5519363 -1.0299522
0000d0 3a 8f 1c bf 17 55 f5 be 81 2f 3b be 5d 3a 9a 3e
       -0.61156046 -0.4791648 -0.1827984 0.30122653
0000e0 dc 1a c9 3e 88 aa 4f be 60 f3 53 be 7c 55 4b bf
       0.39278305 -0.20279896 -0.20698309 -0.79427314
0000f0 89 98 3c bf 11 ee e5 3e b0 f2 da 3f 7d 27 23 3f
       -0.7367025 0.44908193 1.7105312 0.6373213
000100 91 6d cd 3e 38 b7 2a 3e 36 3e c2 be 54 08 02 be
       0.40122655 0.16671455 -0.37938088 -0.1269849
000110 28 cd 12 3e b7 c4 49 bf d2 7b bb 3f cd 2e ab 3e
       0.14336073 -0.7881579 1.4647162 0.33434144
000120 ed f0 83 bd a0 86 c9 bb 9c 04 12 be 56 2c 84 be
       -0.06442437 -0.0061500818 -0.14259571 -0.25815076
000130 d2 90 52 bd 6f 93 82 bf 21 1f 48 bf 05 cd 04 3f
       -0.051407643 -1.0201243 -0.781725 0.51875335
000140 5e a9 cd be f8 8a 98 3c 24 fb 91 be b9 96 5c 3e
       -0.4016828 0.018620953 -0.28511918 0.21541871
000150 43 2b 11 bf 8c 8e a3 be 69 51 49 3c ea 20 35 3e
       -0.5670664 -0.31944692 0.012287476 0.17688337
000160 cf cd 59 bf 8e d1 ff be 3f e8 04 3f 07 61 00 3e
       -0.85079664 -0.49964565 0.5191688 0.12537013
000170 6d c8 41 3d d5 c0 51 3f 87 8e c1 3e 40 d5 79 3f
       0.04731028 0.81934863 0.37804052 0.9759102
000180 bc e5 f1 3e 04 12 94 3e d0 f1 d3 3e d0 1c 01 3f
       0.47245586 0.28919995 0.41395426 0.5043459
000190 69 54 30 be c2 10 c7 be df 39 9d be 84 cb 33 3f
       -0.172197 -0.38879973 -0.30708215 0.70232415
0001a0 2a d9 9c bf d9 3a 3e 3f 09 7c 0e 3f be 89 3a bf
       -1.2253773 0.74308544 0.5565801 -0.7286643
0001b0 74 f7 de bd d7 f2 b1 be 08 29 0b 3e d1 a8 29 bf
       -0.10887042 -0.34755585 0.13589871 -0.6627322
0001c0 f9 4c 4e 3f 31 e5 05 bf cf c8 34 3f 98 20 ca be
       0.805862 -0.52302843 0.7061891 -0.39477992
0001d0 a7 d9 de be 0e e2 8d ba 54 80 0a 3f 9f 56 11 3e
       -0.4352543 -0.0010824816 0.54102063 0.141932
0001e0 2c ac 13 40 95 bc d0 be 0d 1d 6a be 3b 14 a3 bf
       2.3073835 -0.40768877 -0.22862644 -1.2740549
0001f0 a4 44 2e 3f 2c 79 84 3f d1 f8 ae 3e e9 a4 88 3f
       0.6807349 1.0349479 0.34174207 1.0675327
000200 70 3e 0a be 98 73 b4 3e ce de c7 be 1e 99 c1 3f
       -0.1350038 0.3524444 -0.39037174 1.5124853
000210 c7 c3 30 bf 61 5b 78 3f 7e a2 00 bf b4 62 98 3e
       -0.6904873 0.97014433 -0.50247943 0.29762805
000220 db 0d 5e bd 56 07 b7 bd 30 fb ae 3e 72 fd b7 3e
       -0.054212432 -0.08936946 0.34176016 0.3593555
000230 71 c3 46 3e d4 be 89 bf 25 1c 7e 3d d0 7a 01 c0
       0.19410492 -1.0761361 0.06203856 -2.0231209
000240 a6 ba d4 bf e6 c7 a8 bf 9c a2 36 be 00 70 9b be
       -1.661946 -1.3186004 -0.17835468 -0.30358887
000250 aa 28 b8 be 48 e3 f2 be 55 1e 54 bd f1 b8 b7 3f
       -0.35968524 -0.47439027 -0.05178674 1.4353315
000260 5b bc 33 3f df 0b cf 3e 77 e9 9a be de 85 ec be
       0.7020928 0.40438744 -0.30256245 -0.46195883
000270 75 7d 47 3f 6e 91 aa be 18 da 00 bf b9 db 3b 3f
       0.7792581 -0.3331408 -0.50332785 0.73382145
000280 68 36 a8 bf 76 3a bc be 4d d1 b8 3d cd e7 55 bd
       -1.3141603 -0.36763352 0.09024296 -0.052223016
000290 f4 5f ec 3c ae 01 91 bf f0 ba 9a bf 08 14 a1 3f
       0.028854348 -1.1328638 -1.2088299 1.2584238
0002a0 55 21 81 be 24 3e 83 3f d7 e2 a8 bd ef ae e4 3e
       -0.25220743 1.0253339 -0.08246391 0.44664714
0002b0 5e 9b 8c be 25 a7 58 3d 46 40 c3 bd ea 7f 39 3f
       -0.27462286 0.052893776 -0.095337436 0.72460806
0002c0 40 47 4a bf 07 23 e2 3e b3 c7 e0 be 15 6d e2 3e
       -0.7901497 0.4416735 -0.43902358 0.44223848
0002d0 b7 55 6f 3f 26 81 c3 3e f7 f5 42 bd 58 5a 69 be
       0.93490165 0.3818447 -0.04759785 -0.2278837
0002e0 34 65 d2 be 96 ee 9b be 82 b0 0f 3f e5 67 4f 3f
       -0.41092837 -0.30455464 0.56128705 0.81017905
0002f0 76 1c 9a 3f 2e 31 2c 3e e7 a7 d9 3e bb bb c0 be
       1.2039936 0.16815636 0.42510912 -0.37643227
000300 a6 57 af 3e 3a 63 69 bd 83 6c af bf 1f 4c 94 3f
       0.34246558 -0.056979395 -1.370499 1.158573
000310 bb 6b 78 be e2 8d 41 3f 35 a5 2f 3e 7c 47 02 bf
       -0.24259846 0.7560712 0.17152865 -0.50890326
000320 89 6e a6 3e b1 98 d8 bf e4 8d 2a 3f 84 fb 21 bd
       0.32506207 -1.6921598 0.6662276 -0.039546505
000330 8b 08 0a bf 96 81 79 3f d5 5c 88 3f 28 d0 4c be
       -0.53919286 0.9746336 1.065333 -0.2000128
000340 02 e7 6a be 74 39 98 bd 2a ab 03 bd d7 db e0 bf
       -0.22939685 -0.07432833 -0.032145657 -1.756709
000350 1b a3 0f 3d 68 e8 a8 3e 4a c7 e4 be b1 5b c9 3e
       0.03506766 0.32989812 -0.44683295 0.39327767
000360 b5 c9 ea 3e f9 4f a8 be a0 06 1f 3e 80 aa 85 3e
       0.45857015 -0.32873514 0.15529871 0.26106644
000370 8a 25 39 bf d3 eb 1d bf 89 f5 d3 3f 8c 00 95 3e
       -0.72322905 -0.61687964 1.6559306 0.2910198
000380 6f cd 04 3f 34 20 ac be df ca 7a bd 6f 98 c6 be
       0.51875967 -0.3361832 -0.06122863 -0.38788173
000390 80 07 99 bc 99 be 75 bd 20 2a 2c 3f 5a 1f 96 be
       -0.018680334 -0.05999622 0.6725178 -0.29320794
0003a0 d6 71 99 bf 9e 01 ba bd bc 15 30 3d 2e 9b 02 be
       -1.1987865 -0.0908234 0.042989478 -0.12754509
0003b0 32 af d1 be bb 9b bc be b6 65 dd 3d 4d 5f 10 be
       -0.40953976 -0.36837563 0.108104154 -0.14098854
0003c0 74 de 02 be 70 ef d0 3e 9a 07 e1 3e e6 55 20 3d
       -0.12780172 0.40807676 0.43951112 0.03914442
0003d0 73 4d 60 be 62 57 bc 3f 21 da a2 3e 7c 84 f4 bf
       -0.21904545 1.4714167 0.31807044 -1.9102931
0003e0 5c cc 44 bf 9b 08 35 3f 9f 56 0b 3e 74 9f 7f bf
       -0.7687433 0.70716256 0.13607262 -0.9985268
0003f0 82 e6 49 3e e0 1e 44 be fe 0e 4e 3f 09 4a 02 be
       0.19716838 -0.19152403 0.80491626 -0.12723555

encoder.encoder_layers.2.0.bias f4 [8]
000000 1c 63 e5 3d 3e f3 d4 3d 55 37 7c bd a0 6a ad bc
       0.11200544 0.10397957 -0.061576206 -0.021169007
000010 41 5e 5f bc 73 39 44 3d da 3b 17 bd 99 6f 31 3c
       -0.013633312 0.04790635 -0.036922313 0.01082983

encoder.encoder_layers.2.1.weight f4 [8]
000000 82 6d 81 3f 23 af 92 3f 03 7c 88 3f 7a 4c 91 3f
       1.0111544 1.1459697 1.0662845 1.1351464
000010 54 a5 bc 3f 28 0a b0 3f 47 63 8a 3f 33 2c 43 3f
       1.4737954 1.37531 1.0811547 0.7623932

encoder.encoder_layers.2.1.bias f4 [8]
000000 6b 6f d1 bd 0b be 91 3e b2 5e 11 3f 17 98 d9 be
       -0.102263294 0.28465304 0.5678512 -0.42498848
000010 46 c3 0d bf f0 3e 3b bd c0 34 e3 be 0c 62 ba 3e
       -0.5537609 -0.04571432 -0.44376183 0.3640293

encoder.encoder_layers.2.1.running_mean f4 [8]
000000 98 9d 07 c0 26 e1 21 40 16 90 68 c0 ee bf e2 c0
       -2.1189938 2.529367 -3.6337943 -7.085929
000010 1e e3 fa c0 1f c7 a6 c0 26 f2 c1 c0 56 07 e4 40
       -7.8402243 -5.211807 -6.060809 7.1258955

encoder.encoder_layers.2.1.running_var f4 [8]
000000 df eb aa 42 76 b6 bc 42 ae f7 bc 42 e5 17 73 42
       85.460686 94.35637 94.48375 60.773335
000010 d5 39 0b 43 c4 07 1d 43 34 9c ba 42 ff 5f 01 42
       139.2259 157.03033 93.305084 32.343746

encoder.encoder_layers.3.0.weight f4 [8, 8, 2, 2]
000000 84 61 8f 3c cd 72 28 bd ac 85 da bc 2d a0 b1 3c
       0.017502554 -0.041125108 -0.026675068 0.021682823
000010 4b fd b3 bb 10 df 97 bc e4 ac 13 3c 4f 91 cc 3c
       -0.0054928414 -0.018538982 0.009013388 0.024971632
000020 7e f2 2a bc 5a d4 03 bd 36 81 b9 bb 77 13 a5 3c
       -0.010433791 -0.032184936 -0.005661155 0.020150883
000030 12 97 36 bd c0 01 86 3c 1c 21 cd 3c 06 fd 6a bd
       -0.044577666 0.016358256 0.025040202 -0.05737021
000040 fd 6b f3 bc e3 52 b1 3c 82 ae bd 3c 0b fe b0 bd
       -0.029714579 0.021645969 0.0231545 -0.08642205
000050 5d 9b 8d 3c 5e 99 f7 bc e8 7d df bc 00 52 29 3d
       0.017285997 -0.030224498 -0.027281716 0.041337967
000060 37 93 28 ba 09 d3 b3 bc c2 9a 13 3d d4 80 b0 bb
       -0.0006430628 -0.021951215 0.03603626 -0.0053864513
000070 73 df 5d 3d 5c e8 6a 3d 15 69 74 bd 73 f5 ea bc
       0.054168176 0.0573505 -0.059670527 -0.028681492
000080 54 3d 91 3d b1 e1 08 3e b5 a3 a6 3b eb d9 6d 3d
       0.070917755 0.13367344 0.0050854334 0.05806915
000090 2a fb ff 3d 54 5c 99 bc 31 84 87 3d 46 b5 1d 3d
       0.124990776 -0.018720783 0.066170104 0.038502954
0000a0 16 1e 57 3c 9c cd 5d 3d 5d 2a 5d 3d 6c cf ea 3d
       0.013129732 0.054151163 0.05399548 0.11465344
0000b0 c9 ac 4e bd 01 5f 46 3d a8 d4 ae bc 1a af 0b be
       -0.05045775 0.048430447 -0.021341637 -0.13641015
0000c0 14 f1 66 be 71 5a 44 bd c1 aa c8 3c bd 73 ee bc
       -0.22552902 -0.047937814 0.024495484 -0.029107923
0000d0 8b 07 1f 3d a8 b2 0b 3e f2 8c 40 3d 26 98 bb 3c
       0.038825553 0.1364237 0.047009416 0.022899698
0000e0 a2 5e 81 3d 43 a0 73 bd 4a 9f 4d 3d 7b f9 4b bd
       0.06316878 -0.05947901 0.050200738 -0.04979847
0000f0 6a 18 8a bd 27 c4 88 3c bb 44 b1 bd 73 75 06 be
       -0.06742938 0.016695095 -0.086556874 -0.13130741
000100 61 05 96 bc bc c8 c1 bd ee db 8c be 57 ae 05 3e
       -0.018313112 -0.09462115 -0.27511543 0.13054787
000110 83 65 9d 3d a7 13 1e 3e c6 a3 f4 3e 7b 4a 0c 3f
       0.076853774 0.15437184 0.477812 0.5480115
000120 58 61 0c 3f 34 d0 be 3e 3e 8a db 3e c2 b6 3c 3f
       0.54836035 0.3726822 0.42878908 0.73716366
000130 80 2d 29 bd cf 13 69 3c d4 12 c9 3d e9 7f 62 bd
       -0.041303158 0.014225914 0.09818044 -0.055297766
000140 19 dc e8 bc 97 48 6b 3c bc 94 fd be d0 21 d6 be
       -0.028425263 0.0143605685 -0.49527538 -0.41822672
000150 aa 7e bf 3d 93 99 76 bd 18 4a 2c bc 81 88 56 3e
       0.09350331 -0.060205054 -0.010515712 0.2095051
000160 89 7b 59 3d b2 9b 80 bd b6 5a 23 3f 38 ab fe 3d
       0.053096328 -0.062796965 0.6381029 0.12435001
000170 a2 59 41 bf e2 c2 7e be 08 5c a7 bf 9a de a9 bf
       -0.75527394 -0.2487903 -1.3074961 -1.3271058
000180 23 31 43 3d 23 8b 76 3f 40 90 bc 3d 3e a9 91 bd
       0.047654282 0.96306056 0.09207201 -0.071123585
000190 82 df 33 be aa 50 81 be fb 0c 0f 3e 11 f6 1e 3f
       -0.1756573 -0.25256854 0.13969795 0.6209422
0001a0 e4 33 00 bf 72 04 29 be 5f 90 f1 be 55 c5 76 bf
       -0.5007918 -0.16505602 -0.4718046 -0.96394855
0001b0 24 14 f1 3e 57 ad 42 bf 3d ec 8a 3e ff f5 a4 bb
       0.4708568 -0.76045746 0.2713336 -0.005034208
0001c0 a0 53 70 3f a8 a6 e6 3e ad 60 41 3d c2 60 25 be
       0.938776 0.45049024 0.047211338 -0.16150191
0001d0 a6 1b ac be 5e 32 90 be e0 3f 6b bf 23 0e 48 be
       -0.33614844 -0.28163427 -0.9189434 -0.19536643
0001e0 d4 1b 2a be 4b f6 07 3e 96 30 75 bf 32 a1 97 be
       -0.16612178 0.13277547 -0.9577726 -0.2961517
0001f0 f9 c9 02 3f 37 85 57 3d 92 b9 1c 3f 55 1c b8 3e
       0.51089436 0.052617278 0.6122066 0.35959116
000200 c3 01 3e 3d 17 0a 64 3f ad 89 40 3c d9 61 e7 bd
       0.0463884 0.89077896 0.011751574 -0.1129796
000210 43 79 64 be 5b 4d 39 be 3f d5 70 3e 3a 4c 41 3f
       -0.22311883 -0.18095915 0.23518847 0.7550694
000220 fb f7 ac be 06 5b 43 be 72 fa e2 be 88 c0 71 bf
       -0.33782944 -0.19077691 -0.443317 -0.94434404
000230 2a c3 0a 3f b7 4c 55 bf 12 60 b3 3e 27 e7 ba 3d
       0.54204047 -0.8332018 0.35034233 0.0912612
000240 47 fa 92 3f 96 da 1d 3f 26 77 9e bd d0 0a 7b be
       1.1482629 0.6166166 -0.077375695 -0.24515843
000250 6f 9b f5 be d5 d5 e6 be 3e d0 87 bf c6 6a 33 be
       -0.4797015 -0.45085016 -1.0610425 -0.175212
000260 96 e3 78 be bd 15 e1 3d 27 97 5e bf 45 e4 93 be
       -0.24305567 0.109904744 -0.8694939 -0.28885093
000270 d1 a6 d1 3e c9 e2 83 3d 81 aa a3 3e ac d1 0a 3e
       0.40947583 0.0643974 0.31966022 0.13556546
000280 ac f2 ae bd d1 1e 57 3f 4c a8 12 bd a5 a1 84 bc
       -0.0854238 0.840314 -0.03580503 -0.01619036
000290 68 57 96 be 1e 40 26 be a6 e8 d3 3e e9 6d 7d 3f
       -0.2936356 -0.16235396 0.41388434 0.98995835
0002a0 64 65 99 be df 0a 06 3e 0f 82 70 be fc 60 21 bf
       -0.29960167 0.13090084 -0.23487113 -0.6303861
0002b0 b1 21 d4 3e 4f a6 60 bf b7 10 85 3e f7 3f 94 3d
       0.41431955 -0.87753767 0.25989315 0.07238763
0002c0 04 40 98 3f 18 27 b5 3e e0 a1 bc be 38 3b f3 be
       1.1894536 0.3538139 -0.3684225 -0.47506118
0002d0 b1 11 fc bd 15 3d e0 be 3d 14 7e bf 8e 7c 82 bd
       -0.12308062 -0.43796602 -0.9924963 -0.06371413
0002e0 6e 36 51 be 14 5c 6a 3e b0 a4 37 bf f9 b9 84 bd
       -0.2043092 0.22886688 -0.7173567 -0.06480784
0002f0 14 7f b6 3d 35 88 b7 be 9d fb 15 be 17 b5 02 bf
       0.08910957 -0.35846105 -0.14646764 -0.5105757
000300 cf 5c 88 3d 59 d1 4f 3f 6e 7d 7e bd d0 9c 8c be
       0.06658327 0.81178814 -0.062131338 -0.27463388
000310 b7 b5 d6 bd eb 96 fe bd 27 4b ab 3e 70 92 68 3f
       -0.10483878 -0.12431129 0.33455774 0.90848446
000320 80 f2 42 be d6 52 83 3d cc 35 2d be 15 6a 3a bf
       -0.19037819 0.06412284 -0.16915053 -0.7281812
000330 a4 10 8f 3e f1 2c 74 bf a0 b0 42 3e 2f 1d 89 3d
       0.27942383 -0.95381075 0.1901269 0.066950195
000340 55 81 79 3f 48 fe 21 3f ad f9 32 be 25 d8 03 bf
       0.9746297 0.6327863 -0.17478056 -0.51501685
000350 d0 f1 a3 be 9f e6 aa be 35 84 90 bf 4f d3 8e bd
       -0.32020426 -0.33379075 -1.1290346 -0.06973898
000360 ac 42 5c be 73 47 15 3e b4 0c 50 bf 17 d0 32 3d
       -0.21509808 0.14578037 -0.81269383 0.04365548
000370 4b 6e 30 3c 8b 6d b7 be 83 86 71 be df ba 37 bf
       0.010768483 -0.35825762 -0.23586468 -0.7176952
000380 1d 9c fc bd ee 9c 0e 3f a4 66 05 be ac 4b 31 be
       -0.12334464 0.55708206 -0.13027436 -0.17314023
000390 fb c7 47 be 94 4b 7f be 57 d1 52 3e 10 74 55 3f
       -0.1950988 -0.24931175 0.2058767 0.8338022
0003a0 4e ff a4 be ca f7 a0 3e e1 4b 2a bd 9f ba 0a bf
       -0.32226032 0.31439048 -0.04157627 -0.5419101
0003b0 2b 34 b8 3e 01 f4 47 bf c6 49 d9 3e 47 78 31 3e
       0.359773 -0.78106695 0.42439097 0.17331038
0003c0 9b 4f 82 3f f7 96 da 3e 84 55 3b be 43 44 8c be
       1.0180544 0.42693302 -0.1829434 -0.2739583
0003d0 0c 84 1f be 00 08 4c be 98 63 60 bf e2 b2 3c be
       -0.15577716 -0.19924927 -0.8765197 -0.18427613
0003e0 3b 34 b8 bd 53 99 84 3e 9b bd 4a bf 5f b4 f1 3c
       -0.08994337 0.25898227 -0.79195565 0.029504953
0003f0 2a f5 08 3d a0 89 fd bd 24 c9 3d 3e 05 d7 59 be
       0.03343693 -0.123797655 0.1853376 -0.2127343

encoder.encoder_layers.3.0.bias f4 [8]
000000 66 3d b8 3a 46 36 41 be 6f 6e 30 bf f5 1c 82 3f
       0.0014056384 -0.1886836 -0.6891851 1.0165087
000010 a1 73 56 3f 48 e1 b7 3e 30 ae d6 3e b3 a6 0c 3f
       0.83770186 0.35914063 0.4192977 0.5494186

pre_quant_conv.weight f4 [8, 8, 1, 1]
000000 5d b3 e1 3b 6a 1b 37 3d b3 8f d4 3c 37 10 88 3e
       0.006887837 0.04470388 0.025947427 0.2657487
000010 92 f0 e6 3e 57 13 c1 3e 0c 79 b7 3e bf 69 f7 3d
       0.45105416 0.37710068 0.3583454 0.12080716
000020 85 0f 2e bc 2c 84 ad 3d 2a eb 6c bc ae bc b3 3e
       -0.010623817 0.084724754 -0.014460364 0.3510489
000030 46 f1 1f 3f f5 bc f4 3e e8 2f de 3e 14 97 22 3e
       0.6247753 0.47800413 0.43395925 0.15877944
000040 23 3d 10 3c ef 94 95 bd b2 77 f8 3d 93 9a ef 3e
       0.008803639 -0.073037975 0.12132205 0.46797618
000050 23 87 e2 3e 0d 49 e9 3e 94 ab 02 3f 5d 04 19 3e
       0.44243726 0.45563546 0.5104306 0.1494307
000060 bc 55 6a 3c 1d f1 16 3d f9 1a 18 be 04 59 de be
       0.014302667 0.036851037 -0.14854039 -0.4342729
000070 77 7e ff be e5 e5 07 bf e7 fb 13 bf ca 47 2b be
       -0.49901173 -0.53085166 -0.5780625 -0.16726604
000080 52 15 98 bb a2 3d 0c bd b6 63 f6 3c 5d d6 13 3f
       -0.0046412135 -0.034238465 0.030076843 0.5774897
000090 85 c2 10 3f c0 1f e6 3e 7c 81 f3 3e 64 08 25 3e
       0.56546813 0.44946098 0.47559726 0.16116482
0000a0 64 71 f1 bb da f6 75 bb 66 7f 40 3e 48 d7 3e bf
       -0.0073682535 -0.0037531168 0.18798599 -0.74547243
0000b0 af a8 2a bf ca 38 96 be 20 8b 86 be 12 ca 19 be
       -0.6666364 -0.29340202 -0.2627802 -0.1501849
0000c0 d5 af 12 ba 4c ab 37 bd 31 19 66 bd f7 22 18 3f
       -0.0005595659 -0.044841096 -0.05617637 0.5942835
0000d0 e9 96 fb 3e ba 59 99 3e 22 27 a0 3e 50 3a 03 3e
       0.49138573 0.29951268 0.31279856 0.12815213
0000e0 77 cc 34 3c bc 23 97 3d e8 69 39 3d 77 38 82 3e
       0.011035076 0.07379863 0.045267016 0.25433704
0000f0 d8 41 09 3f 66 c6 f1 3e 3c b2 e3 3e a0 ae 15 3e
       0.53616095 0.47221678 0.4447192 0.14617395

pre_quant_conv.bias f4 [8]
000000 a2 9a ea bc 21 d3 d4 3e f2 ae ef be bc 4c 57 3f
       -0.028638188 0.4156733 -0.4681316 0.8410146
000010 16 a7 25 3f 5c 1b cc bf a8 95 a6 3f e2 75 ac be
       0.6470808 -1.594585 1.3014421 -0.33683687

quantizer.embedding.weight f4 [20, 8]
000000 e0 ef a8 3d b6 7e bc 3f 07 2c 49 3e ee 6d 12 40
       0.082488775 1.4726169 0.19645701 2.2879596
000010 eb 5c 9e be 68 41 b2 3e ae d2 50 bb 3f 92 40 bf
       -0.30930266 0.34815526 -0.0031863856 -0.75223154
000020 bb 7f ee bf 9e fd f6 bf 62 ac 35 c0 4c c6 5f 40
       -1.863273 -1.9296148 -2.8386464 3.496478
000030 0d e7 e8 bf 98 eb bf 3e f1 0a 0e bf e2 9c 23 c0
       -1.8195511 0.3748443 -0.55485445 -2.5564504
000040 c4 a1 03 40 99 51 4d 40 a8 2c 0b 40 0f 13 fc bf
       2.0567484 3.2081053 2.1746006 -1.9693316
000050 63 cb 70 40 01 e6 9f c0 78 97 81 40 11 92 03 40
       3.7624137 -4.9968266 4.04974 2.0557902
000060 f7 58 b2 bf f1 16 a8 bf 1d 37 0f c0 1c e6 35 40
       -1.39334 -1.3132001 -2.2377388 2.8421698
000070 53 4e 93 bf 1a c8 85 be cb 99 c6 bb b8 39 00 c0
       -1.1508278 -0.26129228 -0.006060814 -2.0035229
000080 41 c0 be 3f 5e 3a 1d 40 06 7d ba 3f 5d bd 98 bf
       1.4902421 2.4566875 1.4569404 -1.1932789
000090 f7 3d 3c 40 e9 1c 85 c0 b9 8c 56 40 7f 77 b2 3f
       2.941282 -4.159779 3.352339 1.3942717
0000a0 bc 8c 5c c0 ba 50 7f c0 17 15 9c c0 8f 55 b7 40
       -3.4460897 -3.9893022 -4.8775744 5.729194
0000b0 93 b1 81 c0 db 20 1d 40 34 79 17 c0 64 bf 8d c0
       -4.0529265 2.4551303 -2.3667727 -4.429613
0000c0 1f bb 37 c0 34 80 4f c0 89 35 84 c0 eb 0d 9d 40
       -2.870796 -3.2422 -4.131535 4.907949
0000d0 1a 7d 4f c0 38 51 db 3f 13 44 db bf 4e b6 6f c0
       -3.2420106 1.7134161 -1.713015 -3.745502
0000e0 bf f0 99 3c 76 11 09 3f 5d fb db be ac 97 5e 3f
       0.018791554 0.5354227 -0.42965212 0.8695018
0000f0 56 1e 5b 3f 37 af 0b c0 08 5a d2 3f d7 98 ae be
       0.85593164 -2.1825693 1.6433725 -0.34100983
000100 72 18 a3 c0 6f ed c4 c0 68 8d df c0 c8 5d 00 41
       -5.096734 -6.1539836 -6.9860115 8.022896
000110 7c f1 cc c0 d9 20 97 40 e9 d1 89 c0 17 cf cb c0
       -6.404478 4.7227597 -4.306874 -6.3690295
000120 88 e8 95 3e a3 23 ed 3f 07 5e 8f 3f df d3 d0 be
       0.2927897 1.85265 1.120057 -0.40786645
000130 37 28 b3 3f e1 f1 b9 bd f6 3b 0d bf 3d 51 f2 bf
       1.3996648 -0.09079338 -0.5516962 -1.8931042
000140 d6 c4 ee be cc 1d ca bd 15 7c 86 bf ae fe c5 3f
       -0.4663455 -0.098689646 -1.0506617 1.5468347
000150 72 22 2c 3e 52 f3 c3 bf e2 4f 8a 3f 24 87 69 bf
       0.16810015 -1.530863 1.0805628 -0.91221833
000160 d6 79 61 3f 70 2b 8b 3f 79 3d b9 3f 93 33 ee bc
       0.8807653 1.0872631 1.4471885 -0.029077327
000170 d0 50 b8 bf b5 7e 8f bf 45 3d a1 be 97 a6 c9 be
       -1.4399662 -1.1210543 -0.31492057 -0.3938491
000180 f8 27 16 c0 f7 ce 23 c0 52 4b 5d c0 18 84 85 40
       -2.3461895 -2.5595071 -3.4577222 4.1723747
000190 c6 29 20 c0 df 72 82 3f 0d 6c 8e bf 7c 0d 48 c0
       -2.5025496 1.0191306 -1.1126724 -3.125823
0001a0 4c 5b 75 3f 31 e9 e0 3f 29 ac 48 3f f9 d3 ed be
       0.9584243 1.7571164 0.78387696 -0.46450785
0001b0 0a 62 0b 40 70 0b 59 c0 86 50 2d 40 c8 1f 46 3f
       2.1778588 -3.391323 2.7080398 0.77392244
0001c0 da 36 6f bf ec 2c 36 bf 59 f6 d2 bf ae a5 0c 40
       -0.9344307 -0.71162295 -1.6481429 2.1976123
0001d0 da 68 fe be 2b 2b 65 bf 59 ba 08 3f 0f 21 bb bf
       -0.4968937 -0.89518994 0.53409344 -1.4619464
0001e0 20 66 18 bf 2c a4 00 3e 48 72 84 bf a5 77 07 c0
       -0.5953083 0.12562627 -1.0347376 -2.1166775
0001f0 99 9a 7b 3f 75 6a 4c bf 7c 15 14 bd cd 96 aa bf
       0.9828277 -0.7984994 -0.0361533 -1.3327271
000200 c4 a5 84 c0 c5 fa 9c c0 67 a8 b8 c0 47 71 d6 40
       -4.145235 -4.9056115 -5.770557 6.701328
000210 c1 88 a1 c0 81 35 5a 40 1c e9 4b c0 af 05 a8 c0
       -5.0479436 3.4095156 -3.1861029 -5.250694
000220 17 10 03 40 15 5a 7e bf 7d 61 fa 3e fb 63 8a 3e
       2.047857 -0.99356204 0.48902503 0.27029404
000230 2b ba cf 3d 53 e2 df bf 05 89 5a 3f fa 3e e9 3f
       0.101429306 -1.7490944 0.85365325 1.8222344
000240 bd 1b fe 3e fa 16 94 3f ae da 3e 3e 25 86 45 3e
       0.49630538 1.1569512 0.18638107 0.19289453
000250 ec ad c3 3f 89 71 33 c0 61 11 0c 40 0f d4 66 3e
       1.5287452 -2.8038046 2.1885607 0.22541831
000260 7b 1b ab 3e f9 ad 8b bf 69 5d 3b bf a7 33 86 3f
       0.33419403 -1.0912467 -0.7318941 1.0484513
000270 9e 1d d6 3f 14 1a ec bc 6b a3 24 c0 96 59 ca 3f
       1.6727788 -0.028821029 -2.5724742 1.580859

post_quant_conv.bias f4 [8]
000000 70 57 42 bf df 4e c7 3f 41 b6 ff 3f 04 c4 36 3f
       -0.7591467 1.5570945 1.9977494 0.71392846
000010 ea 75 10 c0 a6 16 1b c0 6a ea 77 3e fb 17 bf bf
       -2.257197 -2.4232574 0.24210516 -1.4929193

decoder.decoder_layers.0.0.weight f4 [8, 8, 3, 3]
000000 6e 22 25 be 24 5b e1 bd 87 99 95 bd db 9e 65 3e
       -0.16126415 -0.11003712 -0.07304674 0.2242388
000010 c5 ad 91 be e7 c3 20 be ea 00 5e 3f 21 46 b0 bd
       -0.28452888 -0.15699731 0.86720145 -0.08607126
000020 03 09 c7 be 74 ce 20 3b 42 5b 8d bd 63 1e 6b 3e
       -0.38874063 0.0024537118 -0.06902172 0.2296081
000030 5a c5 b0 be 66 6f 38 bd 11 ef fb 3d 0b 16 11 3e
       -0.34525567 -0.045028113 0.12301458 0.14168565
000040 8e 13 d0 3c 9b ce e6 bd 31 24 e2 3e 67 91 b9 be
       0.02539995 -0.112698756 0.44168237 -0.36243746
000050 23 3b 12 3e c7 7d ca 3d a7 a3 0e 3e c5 22 2e be
       0.14280371 0.098872714 0.13929616 -0.17005451
000060 6d 10 bb 3e 50 f4 3f be 51 1e 2e 3e d4 98 03 3f
       0.3653597 -0.18745542 0.17003752 0.5140507
000070 4c bb 2a 3e 2e a3 09 bd ba 1a 3f bf 04 72 22 3e
       0.1667301 -0.033602886 -0.74650156 0.15863806
000080 d9 e5 93 be d6 6d 9c bc bd 0d 01 3f 57 d7 82 be
       -0.28886297 -0.019095343 0.5041159 -0.25554916
000090 73 e0 84 be f4 dd 72 3d 51 0b 0e be 4b 55 01 bf
       -0.2595249 0.059293702 -0.13871504 -0.5052077
0000a0 ad 44 d0 3e 28 e4 93 3c 8a 6f cc 3e c5 25 cd be
       0.40677395 0.01805313 0.39928848 -0.40067878
0000b0 e2 26 af bd 8c 0e 20 3e b5 57 f1 3d 37 e1 34 be
       -0.08552338 0.15630549 0.11784307 -0.17664038
0000c0 1f 12 5f 3e f6 f4 e9 bd 15 37 b2 3d 22 d8 75 be
       0.21784256 -0.11423676 0.08701912 -0.2400823
0000d0 d9 d2 aa be f1 0e 0f 3f 59 e6 82 3e 2f e8 0a 3f
       -0.3336399 0.55882174 0.25566366 0.54260534
0000e0 64 b3 29 bd 2c 1e 44 3d d1 80 40 3e fb 15 e3 be
       -0.041430846 0.047880337 0.1879914 -0.44352707
0000f0 a0 4c 08 bf 25 d2 4a be 0f a6 62 3e a6 2b a2 bd
       -0.5324192 -0.19806726 0.22133659 -0.079184815
000100 71 9d 22 be ef 9d 1d 3f 66 81 2d 3e 8c 9f b2 3d
       -0.15880372 0.6156911 0.16943893 0.087218374
000110 1f 7f 9a be 56 85 4a be d2 0d c8 be 47 be 1e 3f
       -0.3017511 -0.19777426 -0.39073044 0.6200909
000120 e6 fa 83 3e dc 1f 41 be f8 ee 32 bf d0 2e 30 be
       0.25777358 -0.1885981 -0.6989589 -0.17205358
000130 24 f9 48 3e a8 d0 89 3c fa 99 8a bf 22 b8 d2 bd
       0.1962629 0.016823128 -1.082824 -0.10289027
000140 dd 5c 05 3e cb fb 81 3e f3 89 d4 3e f3 78 ad 3e
       0.13023706 0.25387415 0.41511497 0.3388134
000150 41 93 d5 3e bb e1 84 3f eb ad 4b 3e 67 87 68 bd
       0.41713908 1.0381387 0.19890563 -0.056769755
000160 e0 70 01 3f 0e 54 16 3e cb 23 88 bf c5 67 6c 3d
       0.5056286 0.14680502 -1.0635923 0.05771615
000170 fe 6f 08 3e cb 1d 31 bf 8c 24 c7 bd 7d 91 6e 3f
       0.13323972 -0.69186085 -0.09723768 0.9319075
000180 4a 88 2e bf d4 3e 03 3f 92 aa af 3e 28 a3 8c bf
       -0.6817671 0.51267743 0.34309822 -1.0987291
000190 d6 84 ab be 0c f0 86 bf 78 0b 3c 3f 1c 6c 95 3e
       -0.33499783 -1.0542006 0.73455 0.29184043
0001a0 a7 4d bb 3e a6 5c 3e be bd bd f4 bd 1d e5 55 3f
       0.36582682 -0.1859003 -0.11950252 0.83552724
0001b0 33 17 ba 3f 63 08 cf 3e bd e0 1c 3f af 80 f2 3f
       1.453833 0.40436086 0.61280423 1.8945521
0001c0 41 b5 97 be 31 d0 83 3e 68 1a de 3d cb e3 cf 3e
       -0.29630473 0.25744775 0.1084488 0.4060348
0001d0 d3 7c 48 3e 40 96 b3 be a5 bd 99 3e 16 73 7a 3f
       0.19578867 -0.3507557 0.300275 0.9783186
0001e0 12 8d 26 bf aa 51 a9 bc 03 94 97 3e 83 1c ce be
       -0.65059006 -0.020668823 0.2960511 -0.40256128
0001f0 10 80 52 3e 1c 6c ef be 10 5b db be e9 3c 5b bf
       0.20556664 -0.46762168 -0.42842913 -0.85639817
000200 1e 6e a3 be 1e ff bb 3e f8 b6 bd be 5c 11 17 3e
       -0.3191995 0.36718076 -0.37053657 0.14752716
000210 11 cc d2 3f 90 a1 83 ba a8 1c 0f bf 7b 2d c2 3e
       1.6468526 -0.0010042656 -0.559031 0.37925324
000220 5b 34 05 3e a6 7a 67 bf eb c4 d5 be 71 3f cc be
       0.13008253 -0.9042152 -0.417518 -0.39892152
000230 f3 99 1d be 6c 99 8b 3e fd 5a 47 3e 4d 9c 19 c0
       -0.15390758 0.2726549 0.19468303 -2.4001648
000240 cc 40 09 3e a1 8d 58 3e f3 8d b4 3e 70 6c 84 be
       0.13403624 0.21147777 0.3526455 -0.2586398
000250 bd a8 e2 3c 7b 5c b8 3e ba bb ee bf df 8b db be
       0.027668351 0.36008057 -1.865104 -0.4288015
000260 15 0e 19 3e db cf 72 3f b9 cd 8d 3f 19 16 35 3f
       0.14946778 0.9484841 1.1078407 0.70736843
000270 59 19 8b 3f a9 ee 81 be dc a7 95 3e ef 05 8e 3e
       1.086711 -0.25377396 0.2922963 0.27738902
000280 84 6d 87 3f 93 80 95 3f fa 01 71 bf 32 91 43 be
       1.0580297 1.1679863 -0.9414364 -0.19098356
000290 25 26 9c 3e c0 8b aa be 58 9c d4 be b3 93 4e bc
       0.30497852 -0.33309746 -0.4152553 -0.012608456
0002a0 0e ef 01 bf e5 cd 42 3e 4d 1f db bd 58 13 74 bf
       -0.50755394 0.19023855 -0.106993295 -0.95342016
0002b0 49 f1 02 bf 3a b9 bc 3d 92 0e 95 3f 69 ef 41 3f
       -0.5114942 0.09215017 1.1645072 0.75755936
0002c0 eb 6e 8c 3f 63 a7 75 3d e3 e7 80 be 36 62 3a 3f
       1.097135 0.059974086 -0.25176916 0.7280611
0002d0 33 76 6b 3f 35 46 80 3f a3 39 19 3f 8e a7 34 3f
       0.9197723 1.0021425 0.5985357 0.7056817
0002e0 63 e7 b7 3e 6c d7 a1 3e 7f 48 db 3e ad 62 df 3e
       0.35918722 0.31609666 0.42828748 0.4362997
0002f0 11 03 5b bd e0 af 0e be 35 29 90 3d b9 17 0d 3f
       -0.05346972 -0.13934278 0.070391096 0.5511432
000300 e7 5b 26 bf 6a 5d 8b 3d 77 d4 f4 3c 19 87 4b 3f
       -0.6498398 0.06804927 0.029886467 0.7950302
000310 12 14 49 3f ec 65 6c bf d4 b0 28 bf a2 ee 87 bf
       0.7854625 -0.9234302 -0.6589482 -1.06197
000320 2c 6b 98 be 25 9f 01 be 41 28 6e be c9 15 ea 3e
       -0.29769266 -0.12658365 -0.23257543 0.45719746
000330 79 0c 05 3f 28 94 64 be a5 01 12 bf 9a f3 85 be
       0.51972157 -0.22322142 -0.5703376 -0.26162416
000340 90 e9 55 3b 71 26 b0 bf 7f e0 dd be ba 94 d3 be
       0.0032640435 -1.3761731 -0.4333534 -0.41324407
000350 56 eb d1 be 0e b5 a2 bc e9 bf 86 3e 63 3e f2 be
       -0.4099986 -0.019861724 0.2631829 -0.47313222
000360 0a e0 35 be 74 70 0e 3f 6f 3b 93 3f 2a 05 d6 be
       -0.17761245 0.5564034 1.1502513 -0.41800815
000370 01 8b 11 be 48 64 f0 3e 39 3d 78 bf 86 b0 2e bf
       -0.14213182 0.4695151 -0.9696842 -0.68238103
000380 78 8c 41 3e 5b cc ec 3e 0c 09 94 3e 83 66 b1 3e
       0.18901241 0.4624966 0.28913152 0.34648523
000390 62 92 8e 3e 69 9e 76 bf 53 65 4c 3e 32 88 1e 3e
       0.27846056 -0.96335465 0.19960527 0.15481642
0003a0 6a e7 46 3e 3b 02 3d 3f 2b 39 a0 be 3c 36 9e be
       0.19424215 0.7383153 -0.31293616 -0.30900753
0003b0 cb 49 92 3e 86 b1 58 3e 20 c6 e7 be e4 60 c9 bf
       0.28571925 0.2116147 -0.45268345 -1.5732694
0003c0 9f c2 76 bd ba 60 ab bf 58 1d 21 bf 3c 5f 53 be
       -0.0602442 -1.3388894 -0.629354 -0.20641798
0003d0 f0 9f c9 be b7 38 ae 3f eb b3 60 3e a6 81 af 3e
       -0.39379835 1.3611058 0.21943633 0.342786
0003e0 6d 26 57 3e 73 df 73 3e 38 c5 ec 3d 62 4c ee be
       0.21010752 0.23815708 0.11561054 -0.4654265
0003f0 26 9d 90 be 95 d1 aa 3e a9 de 1c 3e 70 62 a9 bf
       -0.28244895 0.33363023 0.15319313 -1.3233166

decoder.decoder_layers.0.0.bias f4 [8]
000000 fd 16 bc 3d 99 5f a3 3c 77 93 ff 3b 73 b8 85 3d
       0.09184072 0.019943045 0.0077995616 0.065293215
000010 51 f6 c0 bd 48 14 8a bc 72 cb 10 3d eb c8 79 3d
       -0.09421981 -0.016855374 0.03535027 0.060982626

decoder.decoder_layers.0.1.weight f4 [8]
000000 50 ac 94 3f 04 5d b9 3f 0b fe c9 3f 72 50 86 3f
       1.1615086 1.4481511 1.5780653 1.04933
000010 bf f4 6a 3f ff 2b 50 3f f8 54 a2 3f c7 0a 80 3f
       0.917797 0.8131713 1.268218 1.0003289

decoder.decoder_layers.0.1.bias f4 [8]
000000 53 cb 11 3e d5 d2 a2 3e 3f 4f 4c be e3 f6 09 3f
       0.14237718 0.31801477 -0.19952105 0.53892344
000010 03 f7 56 3f 5e fe 90 3e 0a 91 00 be 3a 84 9e 3e
       0.8397066 0.28319067 -0.12555328 0.30960256

decoder.decoder_layers.0.1.running_mean f4 [8]
000000 37 87 9b c1 5f b7 8e 42 37 04 13 c2 5c ac b6 41
       -19.441023 71.35815 -36.754116 22.83416
000010 4c 6d 6a 42 98 d0 e3 3f 7b c9 f3 c1 cc 92 27 c2
       58.606735 1.7798033 -30.47338 -41.893356

decoder.decoder_layers.0.1.running_var f4 [8]
000000 3a 6b 76 44 3d bb b2 44 da 1e e8 44 b2 41 62 44
       985.6754 1429.8512 1856.9641 905.0265
000010 e4 d3 79 44 ac 1b 5d 44 ce f3 a9 44 1f 75 77 44
       999.3108 884.4324 1359.6189 989.83
